Assets/My Behavior-500012.onnx (onnx, 81259 bytes, 6 tensors)

network_body._body_endoder.seq_layers.0.weight f4 [128, 10]
00000000: 663f b6be 105a 5fbd e659 513c 33c4 313d
00000010: 0c4b 1abe f95b f0be 9185 eebc 3b32 15bf
00000020: d8b0 9fbd faec 02bd 1745 96bd da5e 6f3e
00000030: e8ff 45bd a817 91bb b260 293e a33b 37bf
00000040: 6383 e8be b0f2 813e 3239 0e3f 931e 5dbd
00000050: 97e7 0d3c 6b36 2cbe d31b 19bf f49b 753e
00000060: bb57 a93e 4239 bf3d c046 1abf 749d f93c
00000070: 8818 54be e4ff 773e 211a 843f 9296 b93e
00000080: 63f5 b1bd bf54 083e fb53 4f3e a74b 3b3f
00000090: 8236 acbd a4a6 ccbe 404e 9bbe 7f07 b1bc
000000a0: 90d2 a73d a110 50bd 62c6 d13d 08f5 5abe
000000b0: c858 993e 9ca0 6f3e f5fb 073f 220e 2f3c
000000c0: b69f 6d3d 95e6 7d3e 3482 323e b61b 28bf
000000d0: f52a 863e 0b9b 543f c957 893e 8062 f13e
000000e0: 8c89 5cbd b1f8 1d3f 02bd 94bd 550d d8be
000000f0: 283e 85bd 2d3f 903e 5d53 96bd e7a4 cd3e
00000100: 8d16 303e c310 da3e 808a 75bf c2fc 1f3e
00000110: 8b09 b63e b921 9b3d 0210 9bbc 0b9a b4be
00000120: ba8e 08bf f791 b5be 85ae e83e a59b c43e
00000130: 3869 8fbe 98fd 223f bff1 493f 2cc4 d2be
00000140: 5673 a23e 0096 693c 4176 863e 5528 3b3e
00000150: 3964 173f f8cb dabb 0466 083e 1039 94be
00000160: 0b9d febe ec1e 78be 34be e5bd c178 28bd
00000170: a1e7 ebbd 0e3c acbe e05f 0a3e 337f 48bc
00000180: 478b 423e 642c 42bc 6612 81be 311c 8bbd
00000190: 9ec0 803f f240 bc3d 5f8b 29be e06b ac3d
000001a0: cafd cb3e 9d46 febe 90d9 38be 06f7 483d
000001b0: f9b9 d53e dc9a 9c3d ccae bc3e cfe8 0d3e
000001c0: 814d 67be 32ca 0b3d 14d5 373d ac49 de3d
000001d0: 6eb8 b43e c42a b9bd ff4c a73e fbb0 0abe
000001e0: ef6c 323d 2503 813d cbb5 32bf 7850 dc3e
000001f0: 131c 09bc ccbc 753e 3d4d 923e b2d2 673d
00000200: 7ac6 9b3e 36df fcbd ccae 8cbe 9758 fdbe
00000210: bfd7 0dbf 21aa b1be 9da3 b7bd a043 2bbe
00000220: bf8a f93d 90b5 29be 650c afbe 3043 e5bc
00000230: 3093 a33d e21b c7be cf19 443f ca90 533d
00000240: d1f2 153f d381 62be 21a0 343e c270 6a3e
00000250: bce9 893d 9df2 393f f3e6 5e3e df3d 283c
00000260: a914 92bd 5018 19be 37c1 61be 4cf7 a4bd
00000270: 6eb6 1ebe 3435 663f e1da 44be 246e f33e
00000280: c6f4 01bd ade2 193f 6fc8 d0bc 8cec f73d
00000290: 1078 053f 9e82 03be 22b4 1ebe f44b a23e
000002a0: eec2 ab3d 510e bc3e 16c7 3e3f ded5 02bf
000002b0: 0f72 4e3e bbff a2bd 602c aebe 90f1 013e
000002c0: 96dd 45bf 134c 313f a01e 9f3e f8da 273d
000002d0: 4e1a dbbd 4a0e 6ebe c871 c93e a280 8e3e
000002e0: adba 013e 4e28 d83d 2631 153e 52c5 9fbe
000002f0: a6a0 dc3e 0a69 0b3f 2d5e 223e 97a1 cabe
00000300: 62a9 193f 1595 933f 101a cfbe ddd9 23bf
00000310: 7084 b13e f378 dcbd c66a 81bd 2d4f b2bd
00000320: 440a a93e 2621 923e 64cf 073a 8112 543c
00000330: 6149 bbbe a585 2ebf 00a7 fb3d 179a 2bbd
00000340: 050d 803f 18f5 b83e ebc1 85be 0f3f 8abc
00000350: 9d9e ccbe ab82 a2bd 2e52 6bbe e9b4 72be
00000360: e9b4 30bd 1422 c7be c9a4 b83c dac3 99be
00000370: 21be 7b3e dfab 273e 03e6 933e ae53 c1bd
00000380: 4f6b f5bd 537b 603e b717 983e 8738 33bf
00000390: c7d2 e63e 3d3c b3be cd8f 5a3e dfc6 c03d
000003a0: 5160 5cbe 8bb3 aebe 0f9c 5d3f b462 fb3d
000003b0: 1a61 153e 6d23 14be e136 813e 93f9 413e
000003c0: b545 243e 6ded d03e de7a 7abf b302 e9be
000003d0: bb47 4b3e 5dd3 b23e f8fa 30bc 6021 34be
000003e0: fa6b 67be 964e 4dbe 3920 043e 4135 1cbe
000003f0: c53f f33d a019 a7be 6d3d 763e 23c0 32be
-0.35595244 -0.05452925 0.012777781 0.0434 -0.1506769 -0.4694517 -0.029116424 -0.5827977
-0.07797402 -0.03196428 -0.073373966 0.23376027 -0.048339754 -0.004427869 0.16540793 -0.71575373
-0.4541274 0.25380468 0.55556023 -0.053984236 0.008661172 -0.16817634 -0.5980808 0.23985273
0.33074746 0.09337093 -0.60264206 0.030470587 -0.20712483 0.24218708 1.0320474 0.3624769
-0.08689382 0.13313578 0.2024688 0.7316231 -0.08408834 -0.39970887 -0.30333138 -0.02161002
0.081944585 -0.05079711 0.10242917 -0.21382535 0.29950547 0.23401111 0.5311883 0.010684522
0.05801364 0.24794991 0.17432481 -0.65667284 0.2620465 0.83049077 0.26824787 0.47145462
-0.053842112 0.617076 -0.07262613 -0.42197672 -0.06505996 0.281732 -0.07340119 0.40164873
0.17196102 0.42590913 -0.9591446 0.15623763 0.35554156 0.075747915 -0.018928532 -0.35273775
-0.53342783 -0.35462925 0.45445648 0.38399997 -0.28009963 0.63668203 0.788845 -0.41165292
0.3172862 0.014256954 0.26262096 0.18277104 0.591373 -0.006677147 0.13320166 -0.28949785
-0.4972919 -0.24230546 -0.11217919 -0.041130785 -0.11518789 -0.33639568 0.13513136 -0.012237358
0.18998443 -0.011851404 -0.2520935 -0.067924865 1.0058782 0.09192075 -0.16557072 0.08419013
0.39842063 -0.4966325 -0.18051744 0.049063705 0.41743448 0.076467246 0.3685211 0.1385834
-0.22588159 0.034128375 0.04488094 0.108538955 0.3529696 -0.0904136 0.3267593 -0.13544075
0.04356092 0.06299428 -0.69808644 0.43030143 -0.00836851 0.23997802 0.28574553 0.05659742
0.30424863 -0.123472616 -0.2747711 -0.4948165 -0.5540733 -0.3470011 -0.08966754 -0.16725016
0.12184667 -0.16573167 -0.34189144 -0.027986139 0.07987058 -0.3888846 0.7660188 0.051651753
0.58573633 -0.22119837 0.1763921 0.22894576 0.067340344 0.72635823 0.21767788 0.0102686575
-0.07132847 -0.1495068 -0.22046362 -0.08054981 -0.15499279 0.8992493 -0.1922412 0.47544968
-0.031727575 0.60111505 -0.0254862 0.121056646 0.52136326 -0.12842795 -0.15498403 0.31698573
0.08386789 0.36729673 0.7452253 -0.51107585 0.20160697 -0.07958933 -0.3401823 0.12689805
-0.7729124 0.69256705 0.31078053 0.04098031 -0.106983766 -0.23247638 0.3934462 0.27832514
0.12668867 0.105545625 0.1456953 -0.3120523 0.43091315 0.5445715 0.15856238 -0.39576408
0.6002408 1.1529871 -0.40449572 -0.6400431 0.34671354 -0.10765257 -0.063191935 -0.08706508
0.33015645 0.28540915 0.0005180745 0.012943865 -0.3657942 -0.68172675 0.12287712 -0.041895
1.0003973 0.36124492 -0.2612451 -0.016875772 -0.39964762 -0.07935079 -0.22980568 -0.23701824
-0.04314128 -0.38893187 0.022539513 -0.30032235 0.24584247 0.16374157 0.28886423 -0.09439789
-0.11983358 0.21922044 0.29705593 -0.7000813 0.45082685 -0.35006896 0.21343918 0.09412932
-0.21521117 -0.34121355 0.8656625 0.122746855 0.14587823 -0.14466639 0.25237182 0.18942861
0.16042216 0.40806141 -0.9784373 -0.45509872 0.19851582 0.34926882 -0.010802023 -0.17590857
-0.22599784 -0.2004951 0.12902917 -0.1525469 0.118773974 -0.32636738 0.2404687 -0.17456107

network_body._body_endoder.seq_layers.0.bias f4 [128]
00000000: 47ba 993c 3af9 093e a540 b23d 6851 c43d
00000010: f580 ec3c 5aa3 ac3d 7bc2 023e 46d2 1d3e
00000020: 7b1b ab3d ab03 77bd efe8 df3d e92b 433d
00000030: a2fa b43d 7a82 d6ba 4647 793d 6f10 023e
00000040: 18c9 763c eaba ac3d ffc6 6f3d c5e0 be3d
00000050: bac3 a93d e64d 7dbd 2ce7 063e 9033 4c3d
00000060: 823d 983d dfd9 893d b58c b53d db43 253d
00000070: 1e64 893c 43eb e63d e97d 0f3e 4166 ac3d
00000080: 0661 aa3d 6422 d43d b4ee a13d c08e 1e3d
00000090: a2c9 d73d 525a 693d 157e 7fbd 91c4 9cbb
000000a0: bcc5 b03d 1b5c a93d c6d0 d03d aa98 d03d
000000b0: f1f2 ce3d ba28 013e 0fb8 993c 48ac b83d
000000c0: 8934 923d e053 713d 075c d93d b54e a23d
000000d0: 4480 ea3c ced4 a43d bdbf 7abd f783 b83d
000000e0: 88a1 933d 933b 073c 4a3c 593d 206f b83c
000000f0: 0285 4c3d a25f e43d d2be 533d 49ca 823d
00000100: 2465 c83d 9200 d83c 49d2 9a3d fda9 923d
00000110: daa4 8b3d 4df8 ac3d 2404 743d 9d47 ddbc
00000120: 965b 533d e080 523d 100d ce3d 7e03 a03d
00000130: 0b3b d13d 4e2f 0b3d 64f5 8a3d 4427 513d
00000140: b759 813b b742 c33d b544 a9bd 5e5a de3c
00000150: bd86 d33d abae 8e3d 8dbe 99ba b56b 953d
00000160: 5f64 c73d 8c7c bc3d 94aa 6a3d dad3 fd3d
00000170: dd50 843d 4c97 543d becb 5f3d 6355 823d
00000180: 933e 623d 5d5b ad3d 9066 793c 006f 463d
00000190: 4f08 223d e280 d93d ce6e 9c3d d8ee 9e3d
000001a0: c922 d33d fec2 a93d eae3 b7ba 1c7e dcbc
000001b0: 4a64 523d 01a9 e83d 579c f63d 88f5 0d3d
000001c0: a67a bd3d aac7 6a3d 1865 993d b11f e33d
000001d0: 4977 4dbd 61b5 6a3d 7473 b23d 6d06 263d
000001e0: 4a0a 5dbd f190 a83d dd5f 973d c080 dd3d
000001f0: 5be5 cd3d 1e25 a53d 304c 253d d382 9b3d
0.018765582 0.13473979 0.08703736 0.095858395 0.028870085 0.08429594 0.12769501 0.15412244
0.08354851 -0.060306232 0.109331004 0.047649298 0.08836867 -0.0016365789 0.060858987 0.12701581
0.015062593 0.084340885 0.058539387 0.09320215 0.08289285 -0.061841868 0.13174123 0.04985386
0.07433607 0.06731009 0.08864728 0.040347915 0.016771372 0.11275341 0.14012875 0.08417941
0.08319287 0.10358122 0.07906857 0.038710356 0.10536505 0.0569709 -0.0623761 -0.0047841747
0.08631465 0.08269521 0.101960704 0.10185368 0.10104931 0.12613192 0.018764524 0.09017235
0.071389265 0.05891788 0.10613256 0.079251684 0.028625615 0.08048402 -0.061218012 0.09009545
0.07208544 0.00825395 0.05303601 0.022513926 0.049931534 0.11151053 0.051695652 0.06386239
0.09784916 0.02636746 0.0755964 0.07161329 0.06818552 0.08445797 0.05957426 -0.027011687
0.051601015 0.051392436 0.10061085 0.07813166 0.1021634 0.03398066 0.06785086 0.051062837
0.0039474624 0.09534209 -0.08265058 0.0271427 0.10328434 0.06966909 -0.0011729762 0.07295934
0.09735941 0.09203443 0.057291582 0.12393923 0.06460736 0.0519021 0.054637663 0.063639425
0.055235457 0.08464692 0.015222207 0.0484457 0.039558705 0.106202856 0.07638322 0.077603996
0.10309369 0.08289145 -0.0014029716 -0.026915602 0.051365174 0.1136036 0.12041538 0.034657985
0.09251909 0.05731932 0.07489985 0.11090029 -0.050162587 0.057301883 0.08713427 0.04053347
-0.05396489 0.082307704 0.07391331 0.10815573 0.10053512 0.0806372 0.04035586 0.07593312

network_body._body_endoder.seq_layers.2.weight f4 [128, 128]
00000000: 1b75 03be 9b2b 083d dd91 833b b598 b83d
00000010: 3ea4 903c d54e 2ebd fe66 c23e bf26 993d
00000020: 4d6d 7cbb f809 e7bd 909a 253e 5afe 243e
00000030: 2d9e 823e 4628 29bc a32b 6ebd 7674 85bd
00000040: c179 73bd 0760 813d a164 22be 977d ea3d
00000050: f519 303e 0e40 50bc 47ad 353e de93 1a3e
00000060: 53da ee3d c9fd 2fbe 8bc5 203e d078 5dbe
00000070: d4e3 03be 8afe 443e e39c 8f3e b6fe 293d
00000080: acdb de3d 787c 433e e68e 193b 92cd 77bd
00000090: 0541 843d 4f34 c7bd 4f3b b7bd 9d46 03be
000000a0: 9aad a03e 17f4 bdbd 85e0 8e3d 1804 5ebc
000000b0: 84e0 98bd 37ad 7f3e 4d78 49be 0a71 2c3d
000000c0: b0d9 b0bd eb76 ebba 0bdb 2b3e 82f5 393e
000000d0: e97a 4f3d a275 893d 0876 3e3e 571f 87bd
000000e0: da3e 84bd f2c9 1bbd 8366 633d 04ad f6bd
000000f0: 41f3 20be 2a3f 4c3d d082 02be 9a25 44be
00000100: 0ac6 6abd 33fe 96bd 9769 f53c c15a b03d
00000110: ef63 d63d 02b5 503e 165b 63bd d9bf b33c
00000120: 3baa 83bc e504 8c3d 1b65 183e 1ebe 353b
00000130: e8e2 173e a032 5bbd 4fff 25bb ef24 753d
00000140: 225e 3cbb beba f93d cbcb 74bd 934c 7d3c
00000150: 6d4a afba d41e 023e 277f fb3d 8d72 d4bc
00000160: 0b27 3c3d e9fb ad3c 90db cfbc 2d07 283e
00000170: ff75 a33d 7d39 f7bd 4296 b1bd 58d0 0cbe
00000180: bb87 d1bd ab42 7e3d 12e5 653d 6d00 353d
00000190: 14cd 02be 356e 183e 4cb5 fc3c 2e39 983d
000001a0: 3255 223e 31aa a6bd 166d 713b 6002 e9bd
000001b0: 3971 da3d 01ff 24bd 50b1 2dbd 0fcc ddbd
000001c0: ed91 febc ca08 2e3c dc12 70be 72ad 353e
000001d0: 8f8a 773d 3c5a 35bd 002c 653d 9b26 e5bc
000001e0: e989 e1bd 319e e9bd 6a54 223d 8b0b 3cbc
000001f0: 88f6 0dbe f51c 26be 1556 f83c 47f5 8abe
00000200: ffd1 663d 9624 debd 4927 1b3d f756 473e
00000210: 4c48 ce3d e99d 0dbd 788f de3c f9fc 1f3e
00000220: d072 533e 863b abbd b992 3e3d 53df f2bd
00000230: 2194 cfbd b405 f2bd 8318 063d 5649 363c
00000240: 14e9 a73d 8d1e 863d 93ff 87bd af82 2d3d
00000250: f6cf e1bd 72b1 c13d 3c92 68bc b173 713d
00000260: 1713 06bd bf97 58be a00d 43bd e0d2 953d
00000270: adfa 9f3d c969 183e 6e91 dd3d a374 003d
00000280: d1c6 013e 6d3a 26bd 6a10 c93c 22bb 06bd
00000290: 9e4a 873c d19d 60be 7eda 99bd 2d41 46bd
000002a0: 3987 16bd c7b3 653e 5d7f 083e 0da8 993d
000002b0: dbe0 513d 7639 253e ade5 0ebe c034 f23c
000002c0: 0651 7739 fff4 403c cb16 de3d 5f44 f1bd
000002d0: 50d4 0bbe 3c41 b8bd a3cd 0bbc 58a4 9e3d
000002e0: 3b8c c0bd 1888 a63d b8ef 5d3d 6024 193d
000002f0: a0ce 403e d82f 7bbc 7f7c cabc ed7d 88bd
00000300: 9f4e febd b6f6 ab3c e827 593e c49b 9c3d
00000310: fbd4 bebd 798b fabd 0206 47be f552 85bd
00000320: a5a7 eb3d 1bf0 bcbe eb04 063e 9bb6 81bd
00000330: 545b a4bc d62b 7ebc 92a5 e13d 7e98 0e3e
00000340: ddba 3fbd 84d7 01be 55c2 f93d 49cb 743c
00000350: 9672 013e d1ec 863d ef58 efbd 946c 14bc
00000360: 1908 8cbc 5c0e 63bd f76d 973c 4e46 1f3e
00000370: a317 4b3e 1069 71be 17af 793d 8c9d d93d
00000380: 25c3 113d 5b1c c23d 0b3e 05be 9b3e 84bd
00000390: 86b9 6e3d 9853 3e3d a9c4 1d3e c25a 2d3d
000003a0: 4b17 de3a 66ee 2c3e 98e0 1ebe 291c 4bbd
000003b0: d609 e13d 94cc 773e cbcd 143e ce4f 2abc
000003c0: 7021 0dbe 3ab7 893d ed93 febd 7cba 883d
000003d0: 0e38 26be eb1e 1d3e cd71 793e 47d2 b8bd
000003e0: af4d 1abe a1fa 963c 9728 913d e23e 933c
000003f0: cb3e f23d fd6a 413d 3c1a 103e 9526 333e
-0.12837641 0.03324471 0.004015191 0.090135016 0.017656442 -0.04255565 0.37969202 0.07478093
-0.0038517297 -0.11281198 0.16172242 0.16112652 0.25511304 -0.010324543 -0.058147084 -0.06516354
-0.059442285 0.06317144 -0.158587 0.114497356 0.17197402 -0.012710584 0.17741881 0.1509547
0.11662736 -0.17186655 0.15700357 -0.21628118 -0.12879878 0.19237724 0.28049383 0.041502677
0.10881743 0.1909045 0.0023431121 -0.06049878 0.06457714 -0.09726774 -0.08946859 -0.12819906
0.31382447 -0.09275072 0.069764175 -0.013550781 -0.07464698 0.2496842 -0.19674797 0.04209999
-0.086352706 -0.0017964517 0.16782777 0.1816006 0.050654326 0.0671189 0.18599713 -0.065977745
-0.064573005 -0.038034387 0.055517685 -0.12044719 -0.15717794 0.049864925 -0.12745214 -0.19154969
-0.05731777 -0.073727034 0.029957576 0.0861106 0.104682796 0.20381549 -0.05550679 0.021942066
-0.016072383 0.06836871 0.14882319 0.0027731727 0.14832652 -0.053515077 -0.0025329178 0.059849676
-0.002874263 0.12193821 -0.059764665 0.015460151 -0.0013373621 0.12707072 0.12280112 -0.025933528
0.04593567 0.021238284 -0.02537325 0.16408987 0.0798149 -0.12071512 -0.086712375 -0.13751352
-0.10230967 0.0620753 0.05612666 0.04418986 -0.12773544 0.1488579 0.030848168 0.07432781
0.15852812 -0.0813793 0.0036838702 -0.11377406 0.10666127 -0.040282253 -0.042405427 -0.10829937
-0.031075442 0.010622213 -0.23444694 0.17741945 0.060434874 -0.044275507 0.055950165 -0.02797251
-0.110126324 -0.11407126 0.039631285 -0.011477361 -0.13863575 -0.16221984 0.030314485 -0.27140257
0.05635261 -0.10846822 0.037879262 0.19466768 0.10072383 -0.034574423 0.02716802 0.15623845
0.20649266 -0.083609626 0.046526644 -0.11859002 -0.10135675 -0.11817494 0.03273822 0.011125883
0.08198753 0.06548796 -0.06640544 0.042360958 -0.110259935 0.09457673 -0.014195021 0.058948223
-0.03273305 -0.21151637 -0.047620416 0.07315612 0.078114845 0.14884104 0.10818754 0.031361233
0.12673499 -0.040583063 0.02454396 -0.032893308 0.016515072 -0.21935202 -0.07512377 -0.048402
-0.036750052 0.22431861 0.13329835 0.07502756 0.05123983 0.16135201 -0.13954802 0.029566169
0.00023585939 0.011777162 0.10844191 -0.11780619 -0.1365521 -0.089968175 -0.008532914 0.0774619
-0.09401747 0.081314266 0.05418369 0.037388206 0.18828821 -0.015331231 -0.024717567 -0.066646434
-0.124173395 0.020991664 0.2120663 0.076468974 -0.093179666 -0.122336335 -0.19435886 -0.065099634
0.11506585 -0.36901936 0.13087814 -0.06333657 -0.02006308 -0.015513381 0.11017908 0.13925359
-0.046809066 -0.12679869 0.12195269 0.014941045 0.12641367 0.06588138 -0.116868846 -0.00905909
-0.017093705 -0.055433616 0.018485053 0.15554163 0.19833235 -0.23575234 0.060957994 0.10625753
0.035586495 0.094780646 -0.13011949 -0.064572535 0.058282398 0.04646644 0.15407051 0.04232288
0.0016944198 0.16887817 -0.15515363 -0.049587402 0.10988204 0.24199134 0.14531629 -0.0103950035
-0.13782287 0.06724401 -0.12430558 0.06676194 -0.1623232 0.15343826 0.24359818 -0.09024482
-0.15068696 0.018430056 0.0708782 0.01797432 0.11828383 0.047221173 0.14072508 0.17495187

network_body._body_endoder.seq_layers.2.bias f4 [128]
00000000: 169b 873d ee5e 493d 4d7c 873d c8fb 983d
00000010: 326c 8e3d 6c53 343d db3f 4a3d 7ab3 13bc
00000020: 8075 223d 5c8a 543d 4626 713d 89b8 5b3d
00000030: 9dcc 5f3d 1332 a63c 2712 a53d b7d6 8c3d
00000040: 4330 623d 79bd e13c 5d25 4a3d a185 333d
00000050: b930 c13c 0b39 2b3d 21d7 153d c59d 183d
00000060: 4647 683d 274e 63ba c084 6c3d a680 713c
00000070: eb87 b13b 0e89 903d 73c3 3d3d ce0a 2c3d
00000080: 2184 463d a1fc 383d a154 593d 674c 763d
00000090: aa83 e43c 5665 103d 8ba9 743d fb04 1f3d
000000a0: dea1 473d fd67 4b3c 499f 673d 21cf 6a3d
000000b0: 335b 453d 3a1b 793d b451 1d3d 0009 be3b
000000c0: 3d24 f23c ed5c 2f3d 2469 8c3c 52ae 123d
000000d0: 3c0f 1e3d 938e 123d bb59 5b3d 5f67 043d
000000e0: fb88 4d3d e616 213d 2041 5d3d ddcc ca3c
000000f0: 51b4 bf3c 82dd 4e3d 1b52 953d 269a 7b3d
00000100: 631e 693d 1c36 043d ec1f 3e3b 84a0 653d
00000110: e5b0 243d 4887 413d d6f0 5b3d 0827 a93d
00000120: 0f08 f73c 1c65 553d 19f5 9cbc fcc7 863c
00000130: e612 183d ca58 b93c 07de 243d 5408 953c
00000140: e1eb 973b 662d 9b3c 0ab7 0d3d 37e1 523d
00000150: b20e 9d3d da5f cd3c f312 1c3d f152 513d
00000160: a70c 093d 7049 a23c 8d7b 773c 2334 d93c
00000170: fad2 bb3b 0be0 8a3d a843 333d babd ca3c
00000180: d35c 823c 4176 1f3d c9f7 693d 4eaa 283d
00000190: 993b e83c ecc0 dcbb 43f3 113d 19ea ab3c
000001a0: 8ed2 873d b7ae 033d 3c75 9d3c 5dcf 483d
000001b0: 3559 ff3c a75f 233c 5797 593d d7f9 9d3d
000001c0: 2786 e73b a5c7 3a3d 7864 1e3d 9103 193b
000001d0: c2bf cb3c 6666 3e3d fe27 353d 1651 923c
000001e0: eca6 8f3c 709b 083d 86da 0b3d 6cf7 9d3d
000001f0: 73cd 533c 886b 1b3d db8a 483d d214 6d3d
0.06621377 0.049162798 0.06615505 0.074698985 0.0695423 0.04402487 0.049377304 -0.0090149585
0.039662838 0.051889762 0.05887439 0.053642783 0.054638494 0.02028755 0.08060103 0.06876891
0.055221807 0.027556168 0.04935204 0.04382861 0.023582803 0.041802447 0.036582116 0.037259836
0.056708597 -0.00086710084 0.057743788 0.014740145 0.005417814 0.07057391 0.046328973 0.04200249
0.04846585 0.0451628 0.053059224 0.060131457 0.027894814 0.03525289 0.059732 0.03882311
0.048738353 0.012414929 0.05654839 0.05732644 0.048182677 0.06081698 0.038407996 0.0057994127
0.029558295 0.04281323 0.017139979 0.035810776 0.038588747 0.0357805 0.05355237 0.032325145
0.050179463 0.03932848 0.054017186 0.02475589 0.023401411 0.050504215 0.07291051 0.061426304
0.056913745 0.032278165 0.0029010726 0.056061283 0.040207762 0.047248155 0.053696476 0.08259398
0.03015521 0.05209838 -0.01915984 0.016452782 0.037127398 0.022625346 0.040250804 0.018192448
0.0046362733 0.018942546 0.034598388 0.051484313 0.076688185 0.02507012 0.03810401 0.05110449
0.03345933 0.019810408 0.01510514 0.026514119 0.0057319375 0.06781014 0.043765694 0.024748672
0.015913403 0.038931135 0.057121072 0.04117804 0.02834873 -0.0067368653 0.035632383 0.02098565
0.06631957 0.032149043 0.01922094 0.049025882 0.031170467 0.009971536 0.053122845 0.07713669
0.0070655528 0.045600552 0.038670033 0.0023348073 0.02487171 0.046484374 0.044227593 0.01786093
0.01753565 0.03335136 0.034143947 0.077132076 0.012927401 0.037944347 0.048960548 0.057881184

action_model._discrete_distribution.branches.0.weight f4 [9, 128]
00000000: 79d3 b1bc ad1d 3dbd 048b ae3c 317d 8c3a
00000010: 4f22 f9bc 7d3d 0d3c cd95 38bd 9517 2f3d
00000020: 4393 1abd 1734 a6bc 8142 153c 014d f3bc
00000030: 39d5 d3bc 5b21 1dbd 7768 7fbc 19ae 1abd
00000040: 5fed b73c 096b d1bc a988 9fbc 0769 ccbc
00000050: 5522 14bd 1fc4 5cbd 1395 51bd 5cf5 a7bc
00000060: 51eb 20bd b1a2 21bc ff3f e3bc 16ee bc39
00000070: 6b94 26bd 9abf ecbc e67e 20bd 70ba 8ebc
00000080: f3e4 00bd 2bfc 1dbd 4e2e cfbc 9f8a 24bd
00000090: 970f f5bc fe61 d2bc 2c78 4fbc ceca b4bb
000000a0: 9566 683c 4840 13bd 2933 ebbb cb0b a8bc
000000b0: 1b75 53bd 8a1e 7ebd eade 9cbc 2cd9 ecbc
000000c0: 25b1 21bd 5c44 c6bb 9ee9 6dbd d1f0 c9bc
000000d0: 218e 29bd ca76 55bd db79 b8bc be68 0ebc
000000e0: 0e8d 11bd 7dfb 92bc 959d 74bc 9d37 70bd
000000f0: d30f 35bd a3d7 0abd 94c1 51bc 113c b9bc
00000100: e87f 953c 6964 14bd 5fee 17bd b032 03bd
00000110: 2ba5 14bd b7f8 9d3c 2497 11bd 0ac6 acbc
00000120: 9549 4dbd 1715 adbb be77 2f3d 808e 8cbc
00000130: 5992 22bd 80cc cbbc c708 09bd 0a16 c2bc
00000140: 6a00 07bd d306 12bd a063 23bd e382 f2bc
00000150: 5bdb 62bd 2758 9cbc 4a7d 03bd e9c7 f3bb
00000160: bdf8 8d3b 94cc 3d3b 2627 f7bc 4b0f 2bbd
00000170: 2d75 1a3d 7eb8 e9bc 64f9 02bd 521f 253c
00000180: 37ba 20bc 1ed4 26bd f60f 41bd 2b1b 69bd
00000190: 1ea0 f9bc 67f6 123d 738b 2abd 4fa0 b6bc
000001a0: 4e74 3ebd 83a8 2dbd c9a1 1fbc 66fa 98bd
000001b0: 0efe 13bd 91f8 51bd 7dd8 1bbd c0fd 22bd
000001c0: 5e4d 993c d50f 19bd 0a87 e2bc e7f9 05bd
000001d0: 6795 8cbc 5484 d0bc feab 9dbc bc78 32bd
000001e0: 62e5 3cbd a784 22bd edb2 813a b094 59bc
000001f0: ccc8 6dba 5e51 02bc 2720 20bb aae5 d1bc
00000200: fb9b 6dbd 1245 afbd 5f48 23bd b3f9 60bd
00000210: 7047 63bd ff8e c2bd 4a3b bcbc f661 323c
00000220: f114 fc3c 6c6a 0dbd d791 20bd 2ba5 f53d
00000230: 638b 393d 7f83 09bb a2c4 c1bd f748 a4bd
00000240: ba43 ebbc b222 043d cd37 5cbc 31c1 5e3d
00000250: 8fa7 463c 15a0 9dbd 415b 41bd 8682 8cbc
00000260: e429 b43c d661 51bd 57d3 54bd 430d adbc
00000270: 0e47 243d 194c efbc 78d3 bebd 8cd3 1f3d
00000280: ba58 913c d90c 1d3d 0091 1dbd 0cf6 93bb
00000290: f002 d53c f410 19bd ecf7 9b3c d0b9 c73d
000002a0: e79c 0dbd 90b3 ad3d ffa2 21bd 988c e4bc
000002b0: 8f54 1f3c 42b4 5639 8009 753d e56d e0bc
000002c0: 1025 9ebc 113b 03bd c896 443c 798f 9dbd
000002d0: 9a50 013d 4d27 253c 52cc c33d 745a 9ebc
000002e0: 5ccb 42bd 88c5 7bbd 55c9 76bd 4952 47bd
000002f0: 03e1 023d 37de c0bb fa9b bb3c 1e57 b5bd
00000300: 1f62 00bd aefe c2bd 4424 ffbb 5488 85bd
00000310: 073f e9bc 5c8d 88bd 9993 443d 3a16 d6bd
00000320: c68a c6b8 7258 ee3b a89f 6ebc 5869 af3d
00000330: a9d2 febc c0e0 b13c 70c8 9a3d 2dc0 ac3d
00000340: 303d 113d 077d 973d fabc 6ebd bf78 3fbd
00000350: a389 dfbd cf7d a43d 212b 513c 06a5 c13d
00000360: 13d4 6ebd 3d0b 073c 0132 ea3c 86b0 00bd
00000370: e2a5 283d be3e b2bd 33c9 8cbd 2ccc 4a3d
00000380: d1b1 d43d 18e8 d3bd 9342 4bbd ecd0 1a3d
00000390: 6071 ac3d c49c 4cbc 3888 6b3c d592 343d
000003a0: 8da1 85bd a715 22bd eefb 893d f70e 8a3d
000003b0: 79c6 043d 093d dc3c db20 363d 331c bdbb
000003c0: 834b a33c 2b27 093c 11b0 dc3c 1058 453c
000003d0: 5127 b23d 1975 103d 87de 62bd 21cd b23c
000003e0: 258e c83d 7220 c63c 09c2 b4bd 18c8 46bd
000003f0: c8e1 e53c 193f 573c a101 b3bd 2a43 d0bd
-0.021707283 -0.04617088 0.021306522 0.0010718462 -0.030411867 0.008620617 -0.045064736 0.0427471
-0.037738096 -0.02028851 0.009110094 -0.029699804 -0.025858508 -0.03836189 -0.015588871 -0.03776369
0.022452055 -0.025563734 -0.019474344 -0.024952425 -0.036165554 -0.053897973 -0.05116756 -0.020502739
-0.039286915 -0.009865449 -0.027740477 0.00036035542 -0.040668886 -0.028899956 -0.03918352 -0.017422885
-0.031468343 -0.038570564 -0.025290634 -0.040171262 -0.02991466 -0.025681492 -0.012662929 -0.0055173403
0.014184614 -0.035949975 -0.0071777296 -0.020513436 -0.051625352 -0.062040843 -0.019149262 -0.02891215
-0.03947558 -0.0060506295 -0.058084123 -0.024650963 -0.04139531 -0.05211524 -0.022519043 -0.008691965
-0.03553491 -0.017942185 -0.014930149 -0.058646787 -0.044204544 -0.033897053 -0.0128025 -0.02261165
0.018249467 -0.03622857 -0.037092563 -0.03203076 -0.03629033 0.019283636 -0.03554453 -0.021090526
-0.050119 -0.005282055 0.042838804 -0.017157793 -0.03969035 -0.024877787 -0.033455636 -0.02369215
-0.03295938 -0.03565104 -0.03988993 -0.029603427 -0.055384975 -0.019085003 -0.032101907 -0.0074396026
0.0043326304 0.002896105 -0.030170035 -0.04176263 0.037709404 -0.028530356 -0.03197612 0.010078268
-0.009810022 -0.040729634 -0.047134362 -0.056910675 -0.030471858 0.03587952 -0.041636895 -0.022293238
-0.046497636 -0.042397033 -0.009743162 -0.07469635 -0.036130957 -0.051262442 -0.038048256 -0.039792776
0.01871365 -0.037368614 -0.027652282 -0.03270903 -0.017161084 -0.025453724 -0.019247051 -0.043572173
-0.046117194 -0.03967729 0.0009895243 -0.013280079 -0.00090707536 -0.00795397 -0.0024433227 -0.025622208
-0.058010083 -0.08558096 -0.03986394 -0.05492563 -0.05548805 -0.094999306 -0.02297749 0.0108876135
0.030771704 -0.03452532 -0.039201584 0.11994394 0.045298945 -0.0020982919 -0.09461333 -0.080217294
-0.028718818 0.03225965 -0.013441038 0.05438346 0.01212491 -0.07696549 -0.047206167 -0.017152082
0.021992631 -0.051118694 -0.051959362 -0.021124488 0.040106826 -0.02921109 -0.09317678 0.039020106
0.017742503 0.03834233 -0.03846836 -0.004515415 0.026002377 -0.037369683 0.019039117 0.09752238
-0.03457346 0.084815145 -0.039462086 -0.027899072 0.00972475 0.00020475782 0.059823513 -0.027396152
-0.019304782 -0.032038752 0.01199884 -0.07693381 0.03157101 0.010080171 0.095604554 -0.01933024
-0.04755722 -0.061467677 -0.0602506 -0.048662458 0.03195287 -0.005885865 0.022901524 -0.08854507
-0.031343576 -0.095212325 -0.0077863056 -0.06520143 -0.028472437 -0.06667587 0.047992323 -0.10453458
-9.467224e-05 0.007273727 -0.014564432 0.085650146 -0.03110631 0.021713614 0.07557762 0.08435092
0.035458744 0.07396894 -0.05828569 -0.04674601 -0.10914924 0.080318086 0.01276663 0.09455304
-0.05830772 0.0082424255 0.028588297 -0.031418346 0.041173823 -0.087033734 -0.06874313 0.04951112
0.10385478 -0.10347003 -0.049624037 0.0377969 0.08420062 -0.012488548 0.014375739 0.044085342
-0.06524954 -0.03957143 0.06737505 0.067411356 0.03241584 0.026884573 0.044464927 -0.005771184
0.019933468 0.008371155 0.026939424 0.0120449215 0.08698905 0.035267923 -0.055388 0.021826329
0.09792737 0.024185393 -0.08826072 -0.048530668 0.028061762 0.013137602 -0.08740545 -0.101690605

action_model._discrete_distribution.branches.0.bias f4 [9]
00000000: 4e50 0ebd c21c 22bc d4ed 2e3c 9993 87bc
00000010: 6b19 ff3b 889f 96b9 9873 e33c 39dd 763b
00000020: b0c8 693b
-0.034744553 -0.009894552 0.01067682 -0.016549872 0.0077850125 -0.0002872909 0.02776508 0.003766848
0.0035672598
