Assets/My Behavior-255623.onnx (onnx, 81259 bytes, 6 tensors)

network_body._body_endoder.seq_layers.0.weight f4 [128, 10]
-0.053891145 0.1369229 0.67458683 0.28038284 -0.34181032 -0.102474764 0.02102258 -0.2393845
-0.0055933427 -0.10768227 -0.5632017 -0.11443404 -0.011026496 0.10910474 -0.01609276 -0.4454757
0.010175179 -0.04398197 -0.41721523 0.10598492 0.2964991 0.26785237 0.59407586 0.15154263
0.31546083 0.3049801 0.014560536 -0.5227074 0.38198975 1.158146 0.04958191 -0.6310971
0.55306304 -0.58150065 0.05628201 0.13635549 0.29622725 0.11282525 0.5163489 -0.04203374
0.7218542 0.3570393 -0.46895424 -0.24669978 0.1652214 0.7333393 0.3201862 -0.38549745
-0.23920527 0.03798823 -0.23047563 0.04565541 0.2917481 0.2560936 0.24389997 -0.10763553
0.19480664 0.030839067 -0.113625534 -0.62771803 0.20647123 -0.34046862 0.2743469 -0.021929884
-0.62839854 0.28532234 -0.18656658 -0.2999254 0.16223839 -0.60761434 0.6446028 -0.41473442
0.29093066 0.25641122 -0.6669303 0.11830163 0.086688995 0.19398163 0.16007675 0.21688388
0.51844734 0.20064239 0.015553239 -0.13272603 0.08825912 -0.38631812 0.13553324 0.30860165
0.30440766 6.214426e-05 0.17261368 0.47447866 -0.26751947 0.17125355 -0.23184443 0.0037032242
0.10383377 0.28619108 -0.85747105 0.3525562 -0.014400852 -0.098039694 0.08068567 0.049134277
-0.4878797 0.21387894 -0.17643051 -0.032980077 -0.2517887 -0.22627932 0.07001081 -0.08083351
0.13925175 0.14191684 0.0646589 -0.1857538 0.002292473 0.46694615 -0.04532618 0.42702916
-0.2508635 0.08094242 0.4191267 0.8180377 0.20628564 0.08877131 0.2691265 -0.38557187
0.34292006 0.17103016 0.15511453 0.121108666 -0.14530893 0.3000291 -0.49888375 0.35031903
-0.21346244 0.72375035 -0.06485683 0.028302193 0.013732702 -0.516052 0.8243111 0.31801873
-0.07853788 -0.093909636 -0.0045004287 0.18052395 0.09327833 0.47167087 0.33134437 -0.2852937
0.178553 0.20111433 -0.34450057 -0.37313512 0.10489436 0.16462511 -0.56822306 0.29032877
0.14735925 0.018675035 -0.40086493 0.23699346 0.19254722 -0.19093592 0.4544615 0.18927035
0.3023513 -0.13098277 -0.13938206 0.01727123 -0.16303532 0.07913807 -0.1570549 0.13142829
-0.263912 -0.117326684 0.36359635 -1.1290367 0.36773255 0.033141207 -0.18144144 0.022565363
-0.32454413 -0.2201296 0.3691921 -0.20469418 0.73473626 -0.035113454 0.32300472 0.17298871
0.0054280334 0.33517814 -0.4887993 -0.07130136 0.3120109 -0.62135977 -0.047088545 -0.0061553875
0.1358465 0.026289849 0.04908242 -0.077045806 -0.14095084 0.41728967 0.18148516 0.25214115
0.6528839 -0.09504998 0.2704638 0.075287916 0.021493325 0.37156737 -0.89454955 -0.49021187
0.56426805 0.40080884 0.7827315 -0.32741803 -0.4847672 -0.27702257 -0.26782402 -0.273665
0.09003457 -0.2620366 -0.349978 -0.0059004254 0.17645127 -0.24275164 -0.047371734 -0.22609758
-0.20909174 0.029840909 0.33663476 0.32636675 0.465781 0.4921371 -0.041620165 -0.16557977
-0.024078486 -0.51932424 0.15087858 -0.33892247 0.057834413 -0.1495754 0.35158092 0.5650359
0.06051065 -0.04006577 -0.2798111 -0.381797 -1.0201327 -0.28389844 -0.30346695 -0.75019705
00000000: f6bc 5cbd 8435 0c3e b9b1 2c3f 578e 8f3e
00000010: c301 afbe 4ade d1bd 8c37 ac3c 3621 75be
00000020: 5c48 b7bb 8688 dcbd fd2d 10bf 655c eabd
00000030: 7aa8 34bc 4e72 df3d f7d4 83bc 6415 e4be
00000040: cbb5 263c 7026 34bd 3c9d d5be 9f0e d93d
00000050: bbce 973e f223 893e 5b15 183f fe2d 1b3e
00000060: 1584 a13e 5a26 9c3e 508f 6e3c 27d0 05bf
00000070: 2994 c33e 213e 943f 6716 4b3d 948f 21bf
00000080: 8a95 0d3f 3add 14bf f787 663d c6a0 0b3e
00000090: 19ab 973e ed10 e73d 712f 043f 922b 2cbd
000000a0: 70cb 383f dbcd b63e c51a f0be de9e 7cbe
000000b0: cc2f 293e 20bc 3b3f 72ef a33e ec5f c5be
000000c0: 3af2 74be 8c99 1b3d ce01 6cbe 2b01 3b3d
000000d0: 0260 953e b31e 833e eac0 793e 0470 dcbd
000000e0: 647b 473e 36a2 fc3c 81b4 e8bd 21b2 20bf
000000f0: 326d 533e e751 aebe 3277 8c3e 4da6 b3bc
00000100: bade 20bf c515 923e 4f0b 3fbe d28f 99be
00000110: d221 263e 9d8c 1bbf b004 253f 1258 d4be
00000120: ddf4 943e 5548 833e f2bb 2abf 2048 f23d
00000130: 008a b13d 1fa3 463e 29eb 233e cf16 5e3e
00000140: f7b8 043f 3375 4d3e 03d3 7e3c 55e9 07be
00000150: 33c1 b43d 7dcb c5be 3ac9 0a3e 0901 9e3e
00000160: 52db 9b3e 7253 8238 a4c1 303e deee f23e
00000170: 50f8 88be 175d 2f3e a068 6dbe cbb1 723b
00000180: cda6 d43d a387 923e 3983 5bbf 3f82 b43e
00000190: 8df1 6bbc 09c9 c8bd 873e a53d 0641 493d
000001a0: 5ecb f9be 1503 5b3e 33aa 34be 1e16 07bd
000001b0: 73ea 80be c4b5 67be d461 8f3d 0a8c a5bd
000001c0: 0398 0e3e a652 113e e36b 843d 3f36 3ebe
000001d0: 513d 163b 9113 ef3e f2a7 39bd 91a3 da3e
000001e0: 2e71 80be 24c5 a53d c697 d63e eb6a 513f
000001f0: 8b3c 533e bccd b53d f3ca 893e ad69 c5be
00000200: 3893 af3e 8822 2f3e 58d6 1e3e d207 f83d
00000210: ddcb 14be 6a9d 993e b16d ffbe 045d b33e
00000220: e695 5abe b447 393f a8d3 84bd 00da e73c
00000230: 20ff 603c fc1b 04bf 0d06 533f 5ad3 a23e
00000240: 78d8 a0bd b253 c0bd 5578 93bb 45db 383e
00000250: b608 bf3d d87e f13e f8a5 a93e 0412 92be
00000260: 99d6 363e eaf0 4d3e 6162 b0be 910b bfbe
00000270: dbd2 d63d 7c93 283e 1177 11bf f9a5 943e
00000280: 58e5 163e 63fc 983c 2b3e cdbe 6aae 723e
00000290: 192b 453e b584 43be 2daf e83e 16d0 413e
000002a0: cacd 9a3e 5920 06be 2cba 0ebe 657c 8d3c
000002b0: bbf2 26be 2413 a23d 00d3 20be 2395 063e
000002c0: 791f 87be f948 f0bd 4d29 ba3e 4684 90bf
000002d0: 7147 bc3e 13bf 073d c9cb 39be ffda b83c
000002e0: a62a a6be a769 61be bf06 bd3e 5a9b 51be
000002f0: ad17 3c3f 20d3 0fbd e060 a53e f423 313e
00000300: a5dd b13b 789c ab3e e743 fabe 7306 92bd
00000310: e5bf 9f3e 6f11 1fbf ebdf 40bd 22b3 c9bb
00000320: 581b 0b3e cf5d d73c a60a 493d 31ca 9dbd
00000330: 6b55 10be fea6 d53e 3fd7 393e a518 813e
00000340: 6623 273f 90a9 c2bd 3b7a 8a3e 8d30 9a3d
00000350: c512 b03c 143e be3e 3301 65bf 0dfd fabe
00000360: df73 103f d136 cd3e 1761 483f 56a3 a7be
00000370: 6833 f8be e7d5 8dbe 3b20 89be d21d 8cbe
00000380: 0b64 b83d a929 86be 5130 b3be 5b58 c1bb
00000390: a4af 343e e393 78be dd08 42bd 2086 67be
000003a0: 251c 56be ec74 f43c 645b ac3e 8b19 a73e
000003b0: d97a ee3e 65f9 fb3e e879 2abd be8d 29be
000003c0: 3f40 c5bc 6ff2 04bf ea7f 1a3e 3f87 adbe
000003d0: c7e3 6c3d 4b2a 19be 6a02 b43e 31a6 103f
000003e0: 04da 773d 011c 24bd 6743 8fbe e57a c3be
000003f0: b593 82bf 235b 91be 0560 9bbe ea0c 40bf

network_body._body_endoder.seq_layers.0.bias f4 [128]
0.028510367 -0.024615029 0.0411509 0.057819862 0.069416665 0.0010633145 0.041291475 0.04427035
0.076115154 0.117993124 0.017686196 0.11755031 0.058357164 0.09076865 0.03249366 0.07541473
0.06915864 0.06038786 0.06827797 0.10651043 0.068950534 0.09230196 0.035263 0.05879712
0.043084934 0.032368556 0.08985451 0.077382155 0.042349793 0.06508093 0.06308994 0.07670417
0.09282722 0.045480624 0.058411915 0.037261315 0.091048814 0.07013781 0.05999653 0.025628092
0.028759105 0.07217586 0.079523444 0.050242312 -0.0098256925 0.09781787 -0.030976258 0.08698699
0.033342183 0.024175579 0.062531486 0.04643931 0.10929051 0.037283096 0.0712501 0.07215314
0.06849313 0.039388 0.08978795 0.07311551 0.05999493 0.037640627 0.004107874 -0.08406995
0.0152720045 0.07661643 0.05180218 0.03476162 0.027909918 0.061055675 0.0874415 0.059800956
0.07651198 0.08274647 0.045172762 -0.046532568 0.093187176 0.08045584 0.061040603 -0.02008656
0.0691735 0.07213985 0.08165368 0.053378064 0.059591696 0.0769378 0.05027862 0.057411898
0.04052486 0.07501026 -0.011731866 0.08190226 0.0825035 0.08570202 0.086418435 0.051766563
0.092700206 0.08652312 0.14494841 0.09013811 0.050641138 0.05621987 0.085798524 0.062997065
0.054223012 0.06608549 0.082136296 0.061278675 0.054616895 -0.017426757 0.066701666 0.055781066
0.047210507 0.018875351 -0.0764425 0.06894431 0.0140004335 0.04928623 0.06261928 -0.025973562
0.02789875 0.057533376 0.058209147 0.0881009 0.06400422 0.0780876 0.074024804 0.08420808
00000000: 938e e93c 75a5 c9bc d98d 283d 85d4 6c3d
00000010: 532a 8e3d ea5e 8b3a 4021 293d d454 353d
00000020: 43e2 9b3d 61a6 f13d a4e2 903c 38be f03d
00000030: ec07 6f3d eae4 b93d 1218 053d 0a73 9a3d
00000040: 0ca3 8d3d 4359 773d 52d5 8b3d 2422 da3d
00000050: f035 8d3d cf08 bd3d ef6f 103d 40d5 703d
00000060: d479 303d e494 043d a405 b83d 897a 9e3d
00000070: fa76 2d3d 2749 853d 4c35 813d 1317 9d3d
00000080: 331c be3d e449 3a3d 5541 6f3d 529f 183d
00000090: cd77 ba3d 6aa4 8f3d ecbe 753d 01f2 d13c
000000a0: 3798 eb3c f0d0 933d 30dd a23d e2ca 4d3d
000000b0: f1fb 20bc bc54 c83d ecc1 fdbc 3c26 b23d
000000c0: d091 083d dd0b c63c 8210 803d 2537 3e3d
000000d0: b4d3 df3d 29b6 183d 93eb 913d 07c5 933d
000000e0: 2046 8c3d 5055 213d bfe2 b73d 96bd 953d
000000f0: 3ebd 753d 0f2d 1a3d 589b 863b de2c acbd
00000100: 6e37 7a3c 13e9 9c3d 862e 543d 3362 0e3d
00000110: 57a3 e43c 8415 7a3d 8714 b33d d9f1 743d
00000120: 50b2 9c3d fb76 a93d 1307 393d ef98 3ebd
00000130: ebd8 be3d 08c6 a43d b605 7a3d 928c a4bc
00000140: d6aa 8d3d 0fbe 933d 0b3a a73d f5a2 5a3d
00000150: 6c16 743d 9191 9d3d f4f0 4d3d bd28 6b3d
00000160: 65fd 253d fb9e 993d 0337 40bc 5fbc a73d
00000170: 98f7 a83d 8a84 af3d 26fc b03d 2d09 543d
00000180: 9bd9 bd3d 0933 b13d 5b6d 143e 549a b83d
00000190: 156d 4f3d ce46 663d 23b7 af3d 9b04 813d
000001a0: f318 5e3d d457 873d 1337 a83d 59ff 7a3d
000001b0: f7b5 5f3d 8fc2 8ebc e29a 883d b07a 643d
000001c0: ce5f 413d 7ba0 9a3c e38d 9cbd ad32 8d3d
000001d0: 1362 653c 5ce0 493d 893e 803d 82c6 d4bc
000001e0: eb8b e43c 1ea8 6b3d b76c 6e3d 3f6e b43d
000001f0: a514 833d 64ec 9f3d 519a 973d 4975 ac3d

network_body._body_endoder.seq_layers.2.weight f4 [128, 128]
-0.09064089 -0.0029585387 0.16184077 -0.0712019 -0.079860635 -0.091323234 -0.009436129 0.02626771
-0.056482695 0.11135947 0.0021987406 0.16721727 -0.1711059 0.081547156 0.04771009 -0.020261178
0.0138137555 0.102062844 -0.16731748 0.072574735 0.041314505 -0.10155223 0.05713179 0.12219618
0.092031404 -0.078965455 0.07162594 -0.18679903 0.11951385 0.11024651 0.21539988 -0.17410558
-0.027627658 0.08266952 -0.053841047 -0.011671305 0.07522748 0.15034467 0.06241123 0.10316134
0.02769532 0.20892805 0.16754991 -0.08856152 -0.11215178 0.121902585 -0.026791498 -0.3049795
-0.006034885 0.056020457 0.06450711 -0.06765228 -0.16017228 -0.122245595 0.17121391 0.0737875
-0.1272995 -0.123049326 -0.037241172 0.059970684 -0.055543985 0.038211107 -0.1272847 -0.08269618
-0.004118683 -0.053194374 -0.011860839 0.027752118 0.15829891 0.007166282 -0.029509578 -0.06470291
0.053825535 0.15226956 -0.16921628 0.03662502 0.11671664 -0.027982518 -0.028139148 -0.028068177
0.16912313 -0.026988076 -0.037205093 -0.067267835 -0.028564658 0.010214352 0.041899353 -0.09185624
0.09830665 0.11252 0.027744701 0.057001054 0.15715109 0.0049046506 -0.06427187 0.03242418
-0.092372514 -0.012628643 0.066071644 0.102128856 0.022784613 -0.0013913427 0.026645565 -0.036735177
-0.08789735 -0.0019541257 0.06492583 -0.025165046 -0.034437153 -0.03963476 0.04628416 0.07742745
0.012306209 -0.043907143 -0.1683145 -0.1501429 -0.16312446 0.02198822 -0.052995797 0.046418298
0.16057275 -0.1651517 0.24012338 0.014922737 0.09424278 0.05236842 0.013932746 -0.19588114
0.0444458 0.07570696 -0.06174168 0.19260088 -0.041285913 -0.12174394 -0.15115564 0.23067755
-0.030346168 0.13483177 0.11545214 0.08947478 0.044484474 0.021736199 0.17517748 0.08747645
-0.07475546 0.04812199 -0.020207992 0.07266031 -0.036244918 -0.012933082 -0.14395988 0.00358633
0.03181192 -0.17332825 0.03893852 -0.06113533 0.0699152 -0.017897272 -0.02239242 -0.09920467
0.06400523 0.055723373 -0.09688508 0.16900013 -0.0010573483 0.123158835 0.094380945 0.100685954
0.067850865 -0.089205414 0.1245203 -0.0060061184 -0.031163102 -0.11316719 -0.03753121 -0.018607577
-0.15928575 -0.03713321 -0.019425489 0.05326367 -0.09623149 -0.014542566 0.022047723 0.0943896
0.23825674 0.027947186 0.08903376 -0.08663834 -0.10099331 0.2271414 -0.15391119 0.032355987
0.012602218 0.15864576 -0.0316702 0.06489878 0.024550598 0.19607398 -0.24103613 -0.06672665
-0.07570905 0.15815452 0.070097156 -0.035911445 -0.02376785 -0.03642815 -0.017670183 0.034204442
0.048274785 -0.057230175 -0.34711412 0.016053114 0.038363926 0.08234103 -0.01379757 0.20871508
-0.07420116 0.069111496 0.047337286 -0.039561596 0.15111473 -0.08542261 -0.03980616 -0.059930533
-0.002140012 0.05711854 -0.107358746 0.15054058 0.2007854 -0.17628811 0.09421652 0.03011464
-0.033394143 -0.014613242 0.13749327 0.119773425 0.21487832 -0.09950696 0.1642609 -0.10964749
0.10828318 0.16803887 -0.10180606 -0.02692166 -0.074971795 -0.030747566 0.06170317 -0.0076657804
0.09919331 0.094847575 0.118051656 -0.043047853 0.1581819 -0.10188888 0.028232355 0.040224034
00000000: eea1 b9bd 0be4 41bb 96b9 253e 4dd2 91bd
00000010: f98d a3bd ad07 bbbd fe99 1abc 612f d73c
00000020: 665a 67bd 6f10 e43d bf18 103b 013b 2b3e
00000030: 6336 2fbe 3202 a73d a86b 433d c5fa a5bc
00000040: 1753 623c 5306 d13d 4655 2bbe 10a2 943d
00000050: 6639 293d 9efa cfbd 0603 6a3d fe41 fa3d
00000060: f67a bc3d a4b8 a1bd 9fb0 923d 3f48 3fbe
00000070: adc3 f43d ecc8 e13d c991 5c3e bc48 32be
00000080: 6653 e2bc a34e a93d 6e88 5cbd 0039 3fbc
00000090: dd10 9a3d f4f3 193e eba2 7f3d 4146 d33d
000000a0: 4ce1 e23c 3cf1 553e 3492 2b3e be5f b5bd
000000b0: d5af e5bd 10a8 f93d d879 dbbc 4626 9cbe
000000c0: 49c0 c5bb b575 653d 4e1c 843d 478d 8abd
000000d0: 3404 24be e65b fabd b352 2f3e e71d 973d
000000e0: cd5a 02be 4901 fcbd 338a 18bd d2a3 753d
000000f0: 1782 63bd 4083 1c3d ec56 02be 9d5c a9bd
00000100: 04f6 86bb 58e2 59bd f753 42bc 6958 e33c
00000110: 1c19 223e 21d3 ea3b 12be f1bc f682 84bd
00000120: 2a78 5c3d 8dec 1b3e 0847 2dbe 1e04 163d
00000130: 2209 ef3d 983b e5bc 1284 e6bc 3cef e5bc
00000140: 9d2e 2d3e 1916 ddbc 5e64 18bd b8c3 89bd
00000150: 6e00 eabc 195a 273c a89e 2b3d 201f bcbd
00000160: ff54 c93d e370 e63d db48 e33c f079 693d
00000170: 37ec 203e 31b7 a03b f8a0 83bd 38cf 043d
00000180: cd2d bdbd 5ee8 4ebc 9250 873d ef28 d13d
00000190: cca6 ba3c b75d b6ba cd47 da3c a077 16bd
000001a0: 8703 b4bd ca10 00bb d5f7 843d ed26 cebc
000001b0: f90d 0dbd 0f58 22bd 7694 3d3d 4892 9e3d
000001c0: fb9f 493c fad7 33bd a35a 2cbe 0fbf 19be
000001d0: 190a 27be a420 b43c 1f12 59bd 1d21 3e3d
000001e0: 2f6d 243e 871d 29be e7e2 753e 7f7e 743c
000001f0: 5c02 c13d 4580 563d 2c46 643c 1195 48be
00000200: cd0c 363d 400c 9b3d d8e4 7cbd 2a39 453e
00000210: 6b1b 29bd e354 f9bd 8bc8 1abe bc36 6c3e
00000220: 8798 f8bc 5711 0a3e 2c72 ec3d 8e3e b73d
00000230: 5a35 363d 1d10 b23c ba61 333e da26 b33d
00000240: 6419 99bd 901b 453d 3b8b a5bc eece 943d
00000250: 8d75 14bd 47e5 53bc 386a 13be a208 6b3b
00000260: 374d 023d f67c 31be ff7d 1f3d 0a69 7abd
00000270: b32f 8f3d 4d9d 92bc 4f70 b7bc d12b cbbd
00000280: 2d15 833d 313e 643d af6b c6bd 5f0e 2d3e
00000290: b996 8aba b33a fc3d cc4a c13d 7034 ce3d
000002a0: 65f5 8a3d 54b1 b6bd 8004 ff3d f9ce c4bb
000002b0: c349 ffbc 33c4 e7bd 53ba 19bd eb6e 98bc
000002c0: ce1b 23be fe18 18bd 3422 9fbc 022b 5a3d
000002d0: 0415 c5bd f143 6ebc 6d9d b43c 564f c13d
000002e0: 93f9 733e 7ff1 e43c 5557 b63d 716f b1bd
000002f0: 95d5 cebd c197 683e e59a 1dbe b687 043d
00000300: 8979 4e3c 0974 223e 9db8 01bd a7e9 843d
00000310: 561e c93c 9ec7 483e 2dd2 76be fba7 88bd
00000320: 590d 9bbd 42f3 213e 198f 8f3d e117 13bd
00000330: cbb4 c2bc af35 15bd 0fc1 90bc f519 0c3d
00000340: c8bb 453d 306a 6abd f1b8 b1be d281 833c
00000350: 7e23 1d3d 6aa2 a83d 340f 62bc 68b9 553e
00000360: c7f6 97bd 548a 8d3d bee4 413d 570b 22bd
00000370: d2bd 1a3e 0df2 aebd c90b 23bd b879 75bd
00000380: 723f 0cbb 21f5 693d e7de dbbd 4f27 1a3e
00000390: b09a 4d3e df84 34be 97f4 c03d fab2 f63c
000003a0: 4cc8 08bd 616c 6fbc 09cb 0c3e c54b f53d
000003b0: 1009 5c3e 4eca cbbd 0234 283e dd8e e0bd
000003c0: 92c3 dd3d 6212 2c3e b27f d0bd d08a dcbc
000003d0: d08a 99bd 52e2 fbbc 77bc 7c3d 3a31 fbbb
000003e0: dd25 cb3d 723f c23d 11c5 f13d f252 30bd
000003f0: 70fa 213e 1eab d0bd 8a47 e73c f5c1 243d

network_body._body_endoder.seq_layers.2.bias f4 [128]
0.014244145 0.029347492 0.023622964 0.004419619 0.04149371 0.03723157 0.03008808 0.04765346
0.05116903 0.05440224 0.05667961 0.05029144 0.049363136 0.030843763 0.029518003 0.05158865
0.007650992 0.05443104 0.024082314 0.015759947 0.048296947 -0.015917588 0.033570796 0.026140265
0.047215622 0.035750702 0.022599628 0.017098278 -0.003153537 0.045923382 0.02417376 0.03100388
0.022168968 0.021174815 0.043468412 0.07165256 0.028042052 0.04484875 0.03412047 0.047629446
0.01115537 0.019432746 0.022360086 0.018672451 0.015439526 0.046268504 0.0074136183 0.0328986
0.03096628 0.03161948 0.024887336 0.032261517 0.067535415 0.03650496 0.018456897 0.019402826
0.058349404 0.031089494 -0.021057822 0.010541756 0.0457921 0.027146941 0.031219449 0.0014036809
0.056078617 0.027626801 0.046564337 0.041341364 0.036747232 -0.025993075 0.03907914 -0.013216516
0.05723513 0.05209845 0.03704647 0.047245253 0.049691573 -0.024057226 0.011550539 0.028950403
0.05232774 0.01407339 0.044426523 0.030207548 0.020651966 0.03288679 0.012880717 0.057399575
0.010137399 0.023610791 0.044817787 0.03921514 0.029092941 0.03862667 0.0495004 0.04227535
0.048023544 -0.0026208984 0.04193754 0.024404528 0.033393558 0.02912827 0.027953904 0.04487598
0.034927797 0.05531505 0.042305846 0.023904629 0.06907789 0.057435464 0.02482199 0.044166096
0.055299055 0.028018584 0.027626695 0.031105706 0.0568454 0.044286896 0.022914466 0.031306855
-0.0016920841 0.03301679 0.055779472 0.028674692 0.033567548 0.036813587 0.059299044 0.0330979
00000000: 4660 693c 276a f03c f284 c13c 74d2 903b
00000010: 4ff5 293d 2180 183d 477b f63c 4630 433d
00000020: 9e96 513d e2d4 5e3d e128 683d 66fe 4d3d
00000030: 0031 4a3d 0fac fc3c bdcf f13c 9f4e 533d
00000040: 2cb5 fa3b 15f3 5e3d 4648 c53c 011b 813c
00000050: 05d3 453d 9a65 82bc 8881 093d 1c24 d63c
00000060: 2b65 413d 546f 123d db22 b93c b011 8c3c
00000070: 92ab 4ebb 281a 3c3d 0d08 c63c d9fb fd3c
00000080: b29b b53c ce76 ad3c ef0b 323d 94be 923d
00000090: 72b8 e53c 53b3 373d e8c1 0b3d 1817 433d
000000a0: 03c5 363c 6c31 9f3c 802c b73c f8f6 983c
000000b0: 11f6 7c3c 0b84 3d3d f0ed f23b afc0 063d
000000c0: ffac fd3c 6e83 013d 87e0 cb3c a724 043d
000000d0: 0250 8a3d 3a86 153d eb32 973c adf2 9e3c
000000e0: c9ff 6e3d 65af fe3c 7481 acbc 54b7 2c3c
000000f0: 7f90 3b3d 4363 de3c eebf ff3c b7fb b73a
00000100: b1b2 653d 9a51 e23c 3fba 3e3d 9055 293d
00000110: 4484 163d 6eef d4bc 7311 203d 168a 58bc
00000120: 626f 6a3d 2f65 553d 0abe 173d 3d84 413d
00000130: 6489 4b3d a913 c5bc 793e 3d3c 6529 ed3c
00000140: 9d55 563d 1394 663c 96f8 353d d275 f73c
00000150: 502e a93c 4cb4 063d a509 533c d11b 6b3d
00000160: 5517 263c 6b6b c13c db92 373d 0ea0 203d
00000170: 5254 ee3c 0037 1e3d eec0 4a3d eb28 2d3d
00000180: 56b4 443d 61c3 2bbb b3c6 2b3d 01ec c73c
00000190: afc7 083d 699e ee3c 96ff e43c e0cf 373d
000001a0: 7310 0f3d 0992 623d e548 2d3d a4d3 c33c
000001b0: b578 8d3d 7341 6b3d 7c57 cb3c 82e7 343d
000001c0: 4381 623d 3b87 e53c 6151 e23c 65d1 fe3c
000001d0: b9d6 683d 2d66 353d 1eb7 bb3c 9e3b 003d
000001e0: ecc8 ddba 9d3c 073d 0479 643d 30e7 ea3c
000001f0: 207e 093d d8c9 163d 8ee3 723d aa91 073d

action_model._discrete_distribution.branches.0.weight f4 [9, 128]
-0.030364886 -0.017705344 -0.034926698 -0.02607512 -0.022917595 -0.02765002 -0.031772703 -0.03519064
-0.023446187 -0.0097464975 -0.0310429 -0.05188002 -0.027635708 -0.004041691 -0.043521285 -0.043344323
-0.0056429794 -0.03850182 -0.037593093 0.0017041642 -0.03242795 0.03037223 -0.024033304 -0.03794658
0.02362456 -0.0434134 -0.016289724 0.01336571 0.036920168 -0.0049245157 0.033664517 -0.02111018
-0.045206707 -0.018427098 -0.037624154 -0.039985236 -0.026129438 -0.05454301 -0.045878775 -0.031138614
-0.026257666 -0.034421016 -0.041874535 -0.023590757 -0.019649358 -0.04808243 -0.012570507 -0.039352007
-0.027404591 -0.039805185 0.022132805 -0.0110792685 -0.031638764 0.016389905 -0.029578216 -0.033573784
-0.011391961 -0.0429339 0.025562475 -0.003601434 -0.021478843 -0.039035395 -0.033591513 -0.028978234
-0.0352607 -0.033312593 0.01117995 -0.0434395 -0.045352146 0.039732717 -0.031102559 0.04742173
-0.0045211622 -0.006985115 -0.0113440845 -0.041444916 -0.04230205 0.041489895 -0.014039507 -0.020602547
-0.006427258 -0.011980242 0.024286928 -0.010903291 0.018772999 -0.04543443 0.027941795 -0.031068843
0.024141474 -0.020108217 -0.049438506 -0.01690812 -0.01315717 -0.0110321175 -0.032869335 -0.016073732
-0.045398276 -0.021271253 -0.024086699 0.008964234 -0.041593373 -0.03864957 -0.02224479 -0.024036143
-0.01690528 -0.031237414 -0.029159103 -0.029957745 -0.0481132 -0.03993916 -0.0366277 -0.01875536
-0.01313733 -0.013621072 0.0016715612 -0.042922866 0.020619044 -0.034706682 -0.018193549 -0.039735805
-0.025629891 -0.041170303 -0.023389667 -0.02429284 -0.036596563 -0.025744345 -0.03514259 -0.026913015
-0.0016795511 0.052470762 0.07281211 0.05075889 -0.030530823 -0.056973856 0.0058872295 0.028995251
0.0065887007 -0.048935227 -0.046416994 -0.07101963 0.020939913 0.013174697 -0.033946346 0.059485804
-0.0057954188 0.015550627 -0.023643605 -0.039398074 0.030362783 0.015566711 -0.06183546 0.0031062416
-0.019767238 -0.08638714 0.023956932 0.07745684 0.02198973 0.05802608 -0.018797388 -0.083650306
-0.0036913294 0.08462444 -0.002545787 -0.048614748 0.076350436 0.042452052 0.03788037 0.063249886
0.02097738 0.07954138 0.007818939 0.022172742 0.011463285 -0.016986143 -0.003192787 -0.052264933
0.07520424 -0.08047795 0.05469269 -0.060617555 -0.06310692 -0.029634418 0.061317984 0.009419641
-0.053642955 0.034718156 0.012156897 0.07171995 0.027966583 -0.06047484 0.011306993 0.03502696
-0.027822355 -0.065927394 0.008248337 -0.034373302 -0.03431066 -0.01211584 -0.10034304 -0.005214971
0.03414318 -0.020488568 0.047592804 -0.08010157 -0.011363595 0.015039274 0.094908684 -0.07731238
-0.089500345 0.015773091 -0.0077171717 -0.023684217 -0.018293977 0.00076994504 -0.036922287 -0.05420655
0.019814646 0.050394595 -0.006633314 -0.09977291 0.07010319 -0.041672397 -0.07897739 0.0029323564
-0.07512845 0.009767144 -0.026554983 -0.012902289 -0.031152476 0.04030033 0.029961446 -0.03930092
-0.025719525 0.008144651 -0.006618069 -0.08356925 -0.0013435199 -0.011022358 -0.013879628 0.07435214
-0.018878618 0.0367099 0.06861142 -0.014470521 -0.049180068 0.009003856 0.07931701 0.03351191
0.00877205 -0.04213359 -0.04807658 -0.001154209 -0.0750101 -0.016860187 0.036268145 0.04868687
00000000: c8bf f8bc cc0a 91bc 4c0f 0fbd 7d9b d5bc
00000010: aebd bbbc 4b82 e2bc 1824 02bd 0f24 10bd
00000020: 3812 c0bc c6af 1fbc ae4d febc 2580 54bd
00000030: 4864 e2bc 2970 84bb 6043 32bd d189 31bd
00000040: bee8 b8bb 16b4 1dbd 37fb 19bd 435e df3a
00000050: 2cd3 04bd 2fcf f83c 7ee1 c4bc e06d 1bbd
00000060: 4b88 c13c 40d2 31bd 0772 85bc dafb 5a3c
00000070: 9a39 173d d55d a1bb cee3 093d 42ef acbc
00000080: ab2a 39bd 6df4 96bc c91b 1abd 8fc7 23bd
00000090: 670d d6bc 7e68 5fbd 62eb 3bbd 6816 ffbc
000000a0: 511a d7bc 0dfd 0cbd a284 2bbd 6741 c1bc
000000b0: b1f7 a0bc 15f2 44bd 87f4 4dbc 922f 21bd
000000c0: 987f e0bc c30a 23bd db4f b53c d285 35bc
000000d0: a697 01bd 1f44 863c 044e f2bc aa84 09bd
000000e0: 59a5 3abc 75db 2fbd 6568 d13c 0906 6cbb
000000f0: 66f4 afbc 94e3 1fbd 4197 09bd c363 edbc
00000100: 866d 10bd c972 08bd 1c2c 373c 9eed 31bd
00000110: 2cc3 39bd c6be 223d cbca febc 4a3d 423d
00000120: 4226 94bb 64e3 e4bb 8adc 39bc 25c2 29bd
00000130: ea44 2dbd 4ff1 293d f605 66bc acc6 a8bc
00000140: bf9b d2bb c748 44bc 61f5 c63c b8a3 32bc
00000150: d5c9 993c 7419 3abd 31e6 e43c 1684 febc
00000160: 57c4 c53c fdb9 a4bc 0880 4abd e682 8abc
00000170: 2c91 57bc 0ec0 34bc ffa1 06bd 0fad 83bc
00000180: 8bf3 39bd 0d41 aebc 7851 c5bc b9de 123c
00000190: d05d 2abd 034f 1ebd b53a b6bc 72e7 c4bc
000001a0: f17c 8abc 9be5 ffbc 12df eebc f269 f5bc
000001b0: 5912 45bd 3f97 23bd ed06 16bd d7a4 99bc
000001c0: f53d 57bc eb2a 5fbc 4918 db3a e3cf 2fbd
000001d0: 45e9 a83c 9828 0ebd a30a 95bc 03c2 22bd
000001e0: c7f5 d1bc 31a2 28bd b09b bfbc c701 c7bc
000001f0: 47e6 15bd cee5 d2bc adf1 0fbd af78 dcbc
00000200: 6224 dcba 95eb 563d 841e 953d 8ee8 4f3d
00000210: c71b fabc 6b5d 69bd a9e9 c03b 7387 ed3c
00000220: 07e6 d73b 4e70 48bd bf1f 3ebd bd72 91bd
00000230: 2e8a ab3c afda 573c 530b 0bbd 63a7 733d
00000240: 7fe7 bdbb 0fc8 7e3c 3cb0 c1bc e05f 21bd
00000250: 5fbb f83c 850b 7f3c 2e47 7dbd 1692 4b3b
00000260: e7ee a1bc beeb b0bd 5441 c43c b1a1 9e3d
00000270: ce23 b43c c1ac 6d3d fbfc 99bc da50 abbd
00000280: 3bea 71bb 944f ad3d 38d7 26bb 4220 47bd
00000290: 9e5d 9c3d 34e2 2d3d 7228 1b3d 2889 813d
000002a0: c1d8 ab3c 97e6 a23d 021b 003c 9ca3 b53c
000002b0: 81d0 3b3c 8626 8bbc 143e 51bb c113 56bd
000002c0: ae04 9a3d a0d1 a4bd 7105 603d 1d4a 78bd
000002d0: 333e 81bd e1c3 f2bc 9128 7b3d d754 1a3c
000002e0: b7b8 5bbd a034 0e3d b92d 473c e9e1 923d
000002f0: 2d1a e53c 77b4 77bd f740 393c 6e78 0f3d
00000300: b5eb e3bc f104 87bd 0824 073c 05cb 0cbd
00000310: 5689 0cbd 8481 46bc a780 cdbd 59e2 aabb
00000320: b8d9 0b3d a4d7 a7bc acf0 423d 4b0c a4bd
00000330: 5f2e 3abc 4967 763c 7c5f c23d f455 9ebd
00000340: f54b b7bd 9236 813c 54e0 fcbb 6705 c2bc
00000350: 40dd 95bc 23d6 493a d33b 17bd b007 5ebd
00000360: 5352 a23c 906a 4e3d 455c d9bb bd55 ccbd
00000370: 4392 8f3d adb0 2abd e6be a1bd c72c 403b
00000380: f2dc 99bd 5f06 203c d689 d9bc 1f64 53bc
00000390: 7a33 ffbc f511 253d b571 f53c 00fa 20bd
000003a0: c1b1 d2bc 2471 053c 63dc d8bb 5b26 abbd
000003b0: 0c19 b0ba 1f97 34bc 6167 63bc ef45 983d
000003c0: 55a7 9abc 1f5d 163d 2584 8c3d c415 6dbc
000003d0: 0a71 49bd e984 133c f570 a23d c943 093d
000003e0: a5b8 0f3c 4594 2cbd f3eb 44bd d448 97ba
000003f0: e59e 99bd 601e 8abc e88d 143d e26b 473d

action_model._discrete_distribution.branches.0.bias f4 [9]
-0.032503318 -0.010378023 0.003351766 -0.0035624509 0.016178623 0.0028019755 0.022109378 0.0044242633
-0.005627933
00000000: 3322 05bd 9508 2abc 4da9 5b3b 0278 69bb
00000010: 0889 843c 59a1 373b ba1e b53c 69f9 903b
00000020: 866a b8bb
