Assets/My Behavior-500018.onnx (onnx, 81259 bytes, 6 tensors)

network_body._body_endoder.seq_layers.0.weight f4 [128, 10]
0	0x3d817364	0.06320837
1	0x3e9115b6	0.28336877
2	0x3f24dbf8	0.64398146
3	0xbd917a1d	-0.071033694
4	0x3db5bcb5	0.08873884
5	0x3ee696a2	0.450368
6	0x3ec53219	0.38514784
7	0xbda4cd9e	-0.08047031
8	0x3d778eb1	0.060438816
9	0xbea51a5c	-0.32246673
10	0xbdfdfbd7	-0.1240155
11	0x3f2866f9	0.65782124
12	0x3cfc4c99	0.030798243
13	0xbdeebed0	-0.11657488
14	0x3e568440	0.20948887
15	0x3f14faab	0.5819499
16	0xbea3d6db	-0.3199986
17	0x3e909a5a	0.2824276
18	0x3f2afd74	0.6679299
19	0x3f8df1cc	1.1089416
20	0x3de2885d	0.110611655
21	0x3f603568	0.8758149
22	0x3f1699e5	0.58828574
23	0x3e29f4a5	0.1659723
24	0xbde41c44	-0.11138204
25	0xbd71767b	-0.058950882
26	0xbd31bbb9	-0.043391917
27	0x3ea14576	0.31498307
28	0x3ec0e484	0.37674344
29	0x3b52e595	0.0032180299
30	0x3db7b758	0.08970517
31	0x3d44ceb2	0.048048683
32	0xbee4a794	-0.44659102
33	0x3e2c1357	0.16804253
34	0xbe19b9a2	-0.1501222
35	0xbbc09d91	-0.0058781584
36	0xbedb46ef	-0.42827556
37	0x3c70ebe1	0.014704675
38	0xbe97331d	-0.29531184
39	0xbe5b325d	-0.21405931
40	0x3d917134	0.0710167
41	0xbdef944b	-0.116982065
42	0x3f709b93	0.9398739
43	0xbb2e2f03	-0.0026578314
44	0x3e034bde	0.1282191
45	0x3ec46784	0.38360226
46	0x3d36c138	0.04461786
47	0x3e635c8b	0.22203271
48	0xbeb5ac8a	-0.354832
49	0x3f045006	0.51684606
50	0x3e9fe0a6	0.3122608
51	0x3dbcd82f	0.09220921
52	0x3e0c44ff	0.13698195
53	0x3e1dc4e1	0.15407135
54	0xbdb0f31d	-0.0864012
55	0x3e3b8420	0.1831212
56	0x3d685c75	0.0567288
57	0x3cb77140	0.022392869
58	0xbb5fb8b5	-0.0034137194
59	0x3dbd9973	0.09257784
60	0xbef2441e	-0.47317594
61	0xbea7f7a4	-0.32806122
62	0x3e3d48a1	0.18484737
63	0x3ee53df2	0.44773823
64	0xbe1c2a6d	-0.15250559
65	0x3dcd910f	0.10037433
66	0xbed3447a	-0.4126318
67	0x3d4fc4d9	0.050724838
68	0xbe9d5151	-0.30726102
69	0xbe5a4334	-0.21314698
70	0x3d896b00	0.06709862
71	0xbf0c4597	-0.54793686
72	0x3e93e1f6	0.28883332
73	0x3e9d35a1	0.30704978
74	0x3d3e4cfd	0.04646014
75	0x3f474455	0.7783864
76	0xbda78927	-0.081804566
77	0x3d5a6b7b	0.053325158
78	0x3e25755a	0.16158047
79	0x3e53fed8	0.20702684
80	0xbeedbf1a	-0.4643486
81	0x3ce26168	0.027634338
82	0xbd91e31e	-0.07123397
83	0x3e050303	0.1298943
84	0x3d62af28	0.055342823
85	0x3ee39292	0.44447762
86	0x3f1d86c5	0.61533767
87	0xbe31a649	-0.17348589
88	0x3ee3ed89	0.44517162
89	0x3e37b8ce	0.17941591
90	0xbe93dbe3	-0.28878698
91	0xbd155aaa	-0.036463417
92	0xbe1ba1f9	-0.15198506
93	0x3e09db46	0.13462552
94	0xbeec176a	-0.46111614
95	0xbe26a798	-0.1627487
96	0x3e765798	0.24056852
97	0x3ea2b539	0.31778887
98	0xbed212e8	-0.4103005
99	0xbf254b91	-0.6456843
100	0x3e23ec2d	0.16008063
101	0xbd108ffe	-0.03529357
102	0xbe6d2dc1	-0.23161985
103	0x3f54159a	0.8284546
104	0xbdcc26ed	-0.09968362
105	0x3f074dde	0.5285319
106	0xbdc6fbde	-0.097160086
107	0x3f474fd7	0.778562
108	0xbe5ddc74	-0.21666127
109	0xbe906626	-0.28202933
110	0x3f0f211c	0.55909896
111	0xbdbf8000	-0.09350586
112	0x3df0b3e6	0.11753063
113	0x3f302ed2	0.6882144
114	0x3c5359ca	0.012899825
115	0x3f5d8123	0.8652517
116	0xbe9a264b	-0.3010734
117	0xbadc1fbc	-0.0016794126
118	0x3e47e4dd	0.19520898
119	0xbf3ad65e	-0.7298335
120	0xbe06a903	-0.1315041
121	0x3e459751	0.19296004
122	0x3dfd7d1a	0.12377377
123	0xbea21d28	-0.3166287
124	0x3eaa1024	0.3321544
125	0x3c35ba4e	0.011091782
126	0xbf0a8174	-0.5410378
127	0x3f23bb71	0.6395789
128	0x3ee31436	0.44351357
129	0x3f154937	0.5831484
130	0x3e748762	0.2387977
131	0xbcc0c2f2	-0.023530457
132	0x3ea36ea0	0.31920338
133	0x3eb5f669	0.3553956
134	0x3df2dae6	0.11858158
135	0x3d209e8c	0.039213702
136	0xbe5fcbbf	-0.21855067
137	0xbe80bec8	-0.25145555
138	0x3e8bc683	0.2729989
139	0x3ef92fc4	0.48669255
140	0x3f1801f8	0.59378004
141	0x3e119414	0.14216644
142	0x3e94bd7f	0.29050824
143	0x3e9bcf01	0.3043137
144	0x3e2ae8ba	0.1669034
145	0xbf052a7b	-0.52017945
146	0xbe8cf9f1	-0.2753444
147	0x3d0fb500	0.035084724
148	0x3eb84a85	0.35994354
149	0xbe6dedcf	-0.23235248
150	0x3d5bd016	0.053665243
151	0x3b424ac8	0.0029646624
152	0x3f3919c7	0.7230496
153	0xbe9408de	-0.28913015
154	0x3efe1a8b	0.49629626
155	0xbe8106fc	-0.2520064
156	0x3e00cffd	0.12579341
157	0x3dda9d46	0.10674529
158	0x3c87e994	0.01659087
159	0x3f3dc19e	0.7412356
160	0x3ea3328f	0.3187451
161	0xbf0eb06d	-0.55737954
162	0x3e1b5471	0.1516893
163	0x3da33d8f	0.07970726
164	0xbf0effd0	-0.5585909
165	0xbdbcb211	-0.09213651
166	0x3a8bb0c1	0.0010657535
167	0x3daf3938	0.085558355
168	0x3ecdaea5	0.40172306
169	0x3e6cfa09	0.23142256
170	0xbe6c94ab	-0.23103587
171	0xbe348526	-0.17628917
172	0x3e94bc81	0.29050067
173	0x3de3622f	0.111027114
174	0x3d8832e0	0.06650329
175	0x3e4cc7a2	0.19998029
176	0x3e4f44ee	0.20241138
177	0x3e9a5535	0.30143133
178	0x3daecf43	0.08535626
179	0x3db15c16	0.08660142
180	0x3defb817	0.11705034
181	0xbe0bf562	-0.13667825
182	0x3eea21b9	0.45728853
183	0xbe908b56	-0.28231305
184	0x3d531d61	0.05154169
185	0xbc83c9c1	-0.016087415
186	0xbf4edf39	-0.8080936
187	0x3e0feacf	0.14054416
188	0x3c8731db	0.016503265
189	0x3e029efe	0.12755963
190	0xbdac3569	-0.08408625
191	0x3ecea3db	0.40359387
192	0xbf4f8a65	-0.8107055
193	0x3d4ca255	0.0499595
194	0xbc4e9c9e	-0.012610583
195	0xbee5540a	-0.4479068
196	0x3ce73d8f	0.028227596
197	0xbd3ff7c0	-0.046867132
198	0x3e18f4dd	0.14937158
199	0x3edf462b	0.4360822
200	0x3f5dff27	0.86717457
201	0x38eeba7f	0.00011383462
202	0x3e455809	0.19271864
203	0x3d039d52	0.032132454
204	0xb9de8863	-0.00042444756
205	0xbe6d0974	-0.23148137
206	0xbedb84eb	-0.42874846
207	0x3d45b54d	0.048268605
208	0x3eb348ee	0.35016578
209	0x3cbd86cb	0.023135563
210	0x3eddfdfe	0.43357843
211	0x3f17de1c	0.59323287
212	0x3e3a76e3	0.18209414
213	0xbef732f5	-0.48281065
214	0x3dfe21cc	0.1240879
215	0xbec48f4d	-0.3839058
216	0xbf368d8d	-0.7130974
217	0xbdcbc603	-0.09949877
218	0x3f2f4a10	0.68472385
219	0x3df1c87b	0.11805817
220	0x3daaf580	0.08347607
221	0x3dd593bb	0.10428568
222	0x3e7a7909	0.24460234
223	0x3d809ff5	0.062805094
224	0xbefd9894	-0.4953047
225	0x3ecdfc57	0.40231583
226	0xbdff52ea	-0.124669865
227	0x3e856f28	0.26061368
228	0xbdd8dfdf	-0.10589575
229	0xbdaca7f6	-0.084304735
230	0xbe6d16fb	-0.23153298
231	0xbdfa7691	-0.12229646
232	0x3eeab94a	0.4584449
233	0x3f171c44	0.59027505
234	0xbed94500	-0.42435455
235	0xbb60cb20	-0.003430076
236	0x3f19df67	0.6010651
237	0x3e2db172	0.16962221
238	0x3c0a2ef4	0.008434046
239	0x3de2b45b	0.11069556
240	0x3eff5cf3	0.49875602
241	0x3df8422d	0.12121997
242	0xbdfeb67e	-0.12437151
243	0x3f345bc5	0.7045253
244	0xbedc11d7	-0.4298236
245	0x3e2abf8a	0.16674629
246	0x3f25c543	0.6475412
247	0x3eb6aa23	0.3567668
248	0x3f11a389	0.5689016
249	0xbf4c5504	-0.79817224
250	0x3e327055	0.17425664
251	0xbe9eb16e	-0.30994743
252	0xbe9178d0	-0.28412485
253	0xbe719f7c	-0.23595995
254	0x3e97da55	0.29658762
255	0xbe4084b9	-0.1880063

network_body._body_endoder.seq_layers.0.bias f4 [128]
0	0x3cdfaf01	0.027305128
1	0x3d8fd29f	0.07022595
2	0x3db076b2	0.08616389
3	0xbd45ce50	-0.048292458
4	0x3ce14188	0.027497068
5	0x3e01a71d	0.12661405
6	0xbcb31982	-0.021862749
7	0x3d5e9d0d	0.054348994
8	0x3dc8e962	0.09810139
9	0xbd5d812b	-0.054078262
10	0x3e0f30cc	0.13983458
11	0x3deb2476	0.11481564
12	0x3da17498	0.078835666
13	0x3dc0903d	0.09402511
14	0x3dbb14b6	0.0913481
15	0x3cda3b59	0.026639627
16	0x3d937693	0.072003506
17	0x3d1c35b6	0.03813716
18	0x3d501c1c	0.050808057
19	0x3dbd8fad	0.092559196
20	0x3de56957	0.112017326
21	0x3d8502e5	0.06494693
22	0x3dddfa25	0.10838727
23	0x3dd28679	0.10279555
24	0x3e03b314	0.12861282
25	0x3e1fd288	0.15607655
26	0x3d891f3c	0.066954106
27	0x3db6c946	0.089251086
28	0x3a77c7d2	0.0009452078
29	0x3d47fe95	0.048826773
30	0x3dd458c3	0.103684925
31	0x3d2f71d8	0.04283318
32	0x3dccb0e7	0.09994679
33	0x3d7cf384	0.061755672
34	0x3e260783	0.16213803
35	0x3d906f1f	0.07052445
36	0x3d03667b	0.032080155
37	0x3d3f2b77	0.04667231
38	0x3d253986	0.04033806
39	0x3e01feaf	0.1269481
40	0x3d01b332	0.031665035
41	0x3db2c50c	0.0872899
42	0x3dac2c2c	0.084068626
43	0x3db7ccfb	0.08974644
44	0x3d97aae7	0.07405644
45	0x3cfba119	0.030716466
46	0x3d1462bf	0.036226984
47	0xbd8f8922	-0.07008578
48	0x3d96a7d3	0.07356229
49	0x3e006727	0.1253935
50	0xbd7c3fa7	-0.06158414
51	0x3d72491d	0.059151758
52	0x3da39574	0.0798749
53	0x3d9633b3	0.073340796
54	0x3df1005d	0.117676474
55	0x3dc2ea79	0.09517378
56	0x3ceb92f1	0.02875659
57	0x3d9b60ef	0.07586848
58	0x3e13bc32	0.1442726
59	0x3d8d9592	0.06913294
60	0xbc26942f	-0.010167166
61	0x3d2ece4f	0.04267722
62	0x3da107de	0.07862829
63	0x3dc401d1	0.09570659
64	0x3d1d5aee	0.038416795
65	0x3db869dc	0.09004566
66	0x3da1efd2	0.0790707
67	0x3dba906e	0.09109579
68	0x3d9fed81	0.07808972
69	0x3dc6106e	0.096711025
70	0x3d66d506	0.0563555
71	0x3d41db4b	0.047328275
72	0x3dd4e522	0.10395266
73	0x3d8686ba	0.06568666
74	0x3db42eed	0.08798013
75	0x3e03d909	0.12875761
76	0x3dbc8020	0.092041254
77	0x3d65c2b2	0.05609388
78	0x3c01be85	0.007918959
79	0x3db53b2c	0.08849177
80	0x3dde7e7c	0.10863969
81	0x3dd0865e	0.101818785
82	0x3d39f8c2	0.04540325
83	0x3d3285e3	0.043584716
84	0x3e2bc391	0.16773821
85	0x3d75589b	0.059898954
86	0x3da4c70b	0.08045777
87	0x3d905ff2	0.0704955
88	0x3e01389f	0.12619255
89	0x3dcc842d	0.09986148
90	0x3d8ed60d	0.06974421
91	0xbd3b4f10	-0.045729697
92	0x3d58cca5	0.05292954
93	0xbcb09627	-0.021555973
94	0x3df5f546	0.12009673
95	0x3ddc65fc	0.107616395
96	0x3d63d768	0.05562535
97	0x3cd72bec	0.02626606
98	0xbc8dec1b	-0.017324498
99	0x3d0a15e6	0.03371229
100	0x3da7c36f	0.08191573
101	0xbd9f1c3b	-0.077690564
102	0x3d8d0401	0.06885529
103	0x3dc122a2	0.09430434
104	0x3dac6063	0.08416822
105	0x3d5a91f1	0.053361837
106	0x3dc13509	0.09433944
107	0xbd853a80	-0.065052986
108	0x3db087cd	0.08619652
109	0x3d633653	0.05547173
110	0x3de95df2	0.11394872
111	0x3daac6c3	0.08338692
112	0xbdb3095d	-0.0874202
113	0x3cb44485	0.022005329
114	0x3dc8bd4a	0.09801729
115	0x3d9477e4	0.0724943
116	0x3d3ece16	0.046583258
117	0x3d3484f2	0.0440721
118	0x3de1d1a8	0.11026317
119	0x3d737558	0.05943808
120	0x3d854079	0.06506438
121	0x3db85b34	0.090017706
122	0x3dcedd78	0.101008356
123	0x3d9c2406	0.076240584
124	0x3d9c8fa0	0.07644582
125	0x3d385607	0.045003917
126	0x3d4be9c0	0.04978347
127	0x3da3b78c	0.07993993

network_body._body_endoder.seq_layers.2.weight f4 [128, 128]
0	0xbdd37d1e	-0.103265986
1	0x3d32088c	0.043465182
2	0x3e4b26d9	0.19839038
3	0x3bf8b00d	0.0075893463
4	0xbdda3984	-0.106555015
5	0x3d3c5bc7	0.045985963
6	0x3e003388	0.12519658
7	0x3dadab70	0.08479965
8	0xbd6f2119	-0.058381174
9	0xbe3cee39	-0.1845025
10	0x3df9871f	0.121839754
11	0xbdb1d30e	-0.086828336
12	0x3d9ea22c	0.077457756
13	0x3e4d3917	0.2004131
14	0x3e268d16	0.16264758
15	0x3cbee076	0.02330039
16	0xbddbbd51	-0.107294686
17	0x3d1b159e	0.037862413
18	0x3e4008c4	0.18753344
19	0xbd30c4d7	-0.04315647
20	0x3e2f1217	0.17096744
21	0x3c9aba81	0.01888776
22	0x3dd82d93	0.105555676
23	0xbe48115e	-0.19537875
24	0x3ce4ff85	0.027953872
25	0x3e01db14	0.12681228
26	0x3e1a1a19	0.15049018
27	0xbdbd6939	-0.09248585
28	0xbe0ec7a1	-0.1394334
29	0xbcef7419	-0.029230164
30	0x3c4271d5	0.01186796
31	0x3df27ee0	0.11840606
32	0xbd75e6b1	-0.060034458
33	0xbcf4ef9b	-0.029899409
34	0x3cb004b6	0.021486621
35	0xbd8a0ff0	-0.06741321
36	0x3ca74533	0.020418739
37	0xbe5edf5b	-0.21764891
38	0xbb8f1ab4	-0.004367197
39	0x3e5c1429	0.21492065
40	0x3cfb2be3	0.030660575
41	0x3dbd85ed	0.0925406
42	0x3d8270f4	0.063692
43	0x3e29be51	0.16576506
44	0xbe01f0a9	-0.12689461
45	0xbd1ceac9	-0.038309846
46	0xbd9c9721	-0.07646013
47	0x3d352d7b	0.044232827
48	0xbdc45214	-0.09585968
49	0x3ce46378	0.027879462
50	0xbd8ef15e	-0.06979631
51	0xbd55a2a6	-0.052157067
52	0x3cc12944	0.023579247
53	0x3ca376be	0.019954082
54	0xbdbfe7c0	-0.09370375
55	0x3d60b3b5	0.054858882
56	0xbe62fc85	-0.22166641
57	0x3caff3fe	0.02147865
58	0x3da16d4b	0.07882174
59	0x3c8d0709	0.017215269
60	0x3db43fc7	0.08801227
61	0xbc47b79d	-0.012189773
62	0xbe07dd1a	-0.13267937
63	0xbc0dcb7a	-0.00865447
64	0x3da91e6b	0.08257755
65	0xbe0b0459	-0.13575877
66	0xbe2a22f2	-0.16614893
67	0xba3149ff	-0.00067630404
68	0x3d10e752	0.035376854
69	0xbd6b7deb	-0.05749313
70	0xbc3fdf47	-0.011710948
71	0xbe270a31	-0.16312481
72	0x3ddfe444	0.1093221
73	0x3da23fa0	0.07922292
74	0xbdb41ff4	-0.08795157
75	0xbe772141	-0.24133779
76	0x3d5ab440	0.053394556
77	0x3e6a9aef	0.22910665
78	0xbdb328e9	-0.08748037
79	0x3d45ba95	0.04827364
80	0x3c92d7c3	0.017925149
81	0xbe3a9fd6	-0.18225035
82	0x3d1a656e	0.037694387
83	0x3e09ae47	0.13445388
84	0x3e1f9201	0.1558304
85	0x3cb45ee9	0.022017913
86	0xbe916a1c	-0.28401268
87	0xbd2005f8	-0.039068192
88	0x3ba9442d	0.005165598
89	0xbdcdf220	-0.10055947
90	0x3e2a10f4	0.1660803
91	0xbcdd8d87	-0.027045025
92	0x3e63ef0e	0.22259161
93	0xbd006ecc	-0.031355664
94	0x3dc91207	0.098178916
95	0x3d13e8b2	0.036110587
96	0x3de36bc1	0.11104537
97	0x3df9fe85	0.12206749
98	0xbdfbaa4d	-0.12288342
99	0xbd2615ec	-0.04054825
100	0x3e136823	0.14395194
101	0xbd12baba	-0.035822608
102	0xbe04119a	-0.1289734
103	0xbc44192e	-0.011968894
104	0x3e43f2e1	0.1913562
105	0xbd151efc	-0.036406502
106	0x3e811360	0.25210094
107	0x3d87d164	0.06631735
108	0x3ce01d27	0.02735765
109	0xbd6ff274	-0.05858083
110	0x3e2aab4c	0.16666907
111	0xbe01414a	-0.12622562
112	0xbd4b2337	-0.04959413
113	0xbd059645	-0.03261401
114	0x3e7c0caa	0.24614206
115	0xbd3252d7	-0.043536033
116	0x3da16dc6	0.07882266
117	0xbda901e2	-0.08252312
118	0x3df45f15	0.11932198
119	0x3cd002d1	0.025391968
120	0xbcaf9ef8	-0.021438107
121	0x3c53a935	0.01291876
122	0x3dcf963c	0.10136077
123	0xbdec1361	-0.11527134
124	0xbc75732c	-0.014981072
125	0x3d80e881	0.062943466
126	0xbe4c6173	-0.19959049
127	0x3d77b600	0.060476303
128	0x3d559ccd	0.05215149
129	0x3e1f3d22	0.15550664
130	0xbdf59622	-0.11991526
131	0xbd165689	-0.03670362
132	0x3dd2dbf9	0.10295863
133	0x3dc09b35	0.094046034
134	0xbda59a05	-0.080860175
135	0x3df2892b	0.11842569
136	0x3e2eff67	0.17089616
137	0x3caa2c70	0.020773143
138	0x3cc1e538	0.02366887
139	0xbe72240d	-0.23646565
140	0xbe079510	-0.13240457
141	0xbcc1aa00	-0.023640633
142	0x3c62fd05	0.01385427
143	0x3e58bd53	0.21165971
144	0xbe2a8a9a	-0.16654435
145	0x3e332030	0.17492747
146	0xbd8a0ed9	-0.06741113
147	0x3d6e09d1	0.05811483
148	0xbda145b3	-0.07874622
149	0xbd204b4b	-0.039134305
150	0xbe3c10bf	-0.18365763
151	0x3d087297	0.033312406
152	0xbd30323d	-0.04301666
153	0xbe304842	-0.17215064
154	0xbdd186fa	-0.10230823
155	0x3df0bd06	0.11754803
156	0xbe2c1489	-0.16804709
157	0x3c53c950	0.012926415
158	0xbe26ddc8	-0.1629554
159	0x3df9eca2	0.12203337
160	0x3e1b9cfb	0.15196602
161	0xbd38231c	-0.044955358
162	0x3d3639ff	0.044488903
163	0xbd239d12	-0.039944716
164	0x3d2e24fe	0.042515747
165	0xbe946231	-0.28981164
166	0xbd221f4b	-0.039580625
167	0x3b8e7029	0.0043468666
168	0x3e5993ed	0.21247835
169	0x3e2d5816	0.16928133
170	0xbd968640	-0.07349825
171	0xbabeb7a4	-0.0014550579
172	0xbe287382	-0.16450313
173	0x3cc9e5f0	0.024645776
174	0x3dd22f1a	0.1026289
175	0x3e12ad70	0.14323974
176	0x3d9bb3c3	0.07602646
177	0x3c044e50	0.008075312
178	0xbd84d02f	-0.0648502
179	0xbddc01c5	-0.10742525
180	0xbd743650	-0.05962211
181	0x3e53b455	0.2067426
182	0xbe029f03	-0.1275597
183	0x3d4749d6	0.0486544
184	0xbcb54a58	-0.022130176
185	0xbe62f663	-0.22164302
186	0x3d1d12cd	0.038348008
187	0x3c88e185	0.016709099
188	0xbe1bbc9a	-0.15208665
189	0xbcc36e46	-0.023856293
190	0x3e8509b8	0.25983977
191	0x3db07553	0.08616128
192	0xbe682677	-0.22670923
193	0x3c99e9bf	0.018788217
194	0x3db828d7	0.089921646
195	0xbdeb6520	-0.114938974
196	0x3e4ad4f8	0.19807804
197	0x3e0639e2	0.13108018
198	0xbd56f1a8	-0.052476555
199	0xbdc4ed83	-0.09615614
200	0x3bcc201e	0.0062294146
201	0x3d816276	0.06317608
202	0x3d58c5ff	0.0529232
203	0xbe8444e6	-0.25833815
204	0xbe4915eb	-0.19637267
205	0x3d055ac8	0.03255728
206	0xbd9112f0	-0.0708369
207	0x3e09c423	0.13453726
208	0xbe13b1dd	-0.14423318
209	0xbdf3b1ad	-0.11899123
210	0xbda26893	-0.07930102
211	0x3e0eec94	0.13957435
212	0xbe39b060	-0.18133688
213	0xbd3463b2	-0.04404039
214	0x3e36b37e	0.17841908
215	0x3dc88942	0.09791805
216	0xbd27168c	-0.040792987
217	0x3e223304	0.15839773
218	0x3e5d8346	0.21632108
219	0x3d2e7c5a	0.04259906
220	0xbe353ac9	-0.17698206
221	0xbd2375b9	-0.03990719
222	0xbd46c04c	-0.048523232
223	0x3c48f1ca	0.012264678
224	0xbd2b43cf	-0.041812714
225	0x3d8f30de	0.069917426
226	0xbd97c62c	-0.07410845
227	0x3e08e34e	0.1336796
228	0xbd5d0e8c	-0.05396895
229	0xbe2faed4	-0.17156535
230	0xbe2bf3e2	-0.16792253
231	0xbdf67fe1	-0.1203611
232	0x3e1a9ba9	0.15098442
233	0x3e35764e	0.17720911
234	0xbd7f6122	-0.062348492
235	0x3e0fb6f3	0.14034633
236	0xbca5501e	-0.020179804
237	0x3dd2f91f	0.10301422
238	0xbd746131	-0.059663
239	0x3e772dba	0.24138537
240	0x3ce411e7	0.027840568
241	0x3e3c46e4	0.18386418
242	0x3e4415e9	0.19148983
243	0xbcaf2ebe	-0.021384593
244	0x3c8f89cc	0.017521761
245	0x3e3cf0c2	0.18451217
246	0xbe0c5600	-0.13704681
247	0x3d104af3	0.035227727
248	0x3e58fb3f	0.21189593
249	0x3d4e44f5	0.05035873
250	0x3d2b7b62	0.041865714
251	0x3d7abd90	0.061215937
252	0xbdd457ce	-0.1036831
253	0x3e136271	0.14393021
254	0x3e3d9c9a	0.1851677
255	0x3d3f1a9c	0.046656236

network_body._body_endoder.seq_layers.2.bias f4 [128]
0	0x3d516d28	0.05112949
1	0x3c3f9a1e	0.011694459
2	0x3d4c1d01	0.049832348
3	0x3d0f9041	0.03504968
4	0xbaac0297	-0.001312333
5	0x3d1058ac	0.035240814
6	0x3cad21cf	0.021134285
7	0x3d624c3b	0.05524848
8	0x3d80cb2a	0.062887505
9	0x3d86ca86	0.06581597
10	0x3c20fa9c	0.009825375
11	0x3c2c78f3	0.010526883
12	0x3d16ac42	0.03678537
13	0x3d8d94a2	0.06913115
14	0x3da84f86	0.08218293
15	0x3da1fef2	0.07909955
16	0x3daa5956	0.08317821
17	0xbc82c6fc	-0.015964024
18	0x3cc5ba8a	0.0241368
19	0x3c86161b	0.016367963
20	0x3c9b4ca5	0.018957445
21	0x3caf88c0	0.021427512
22	0xbc8e99cb	-0.017407319
23	0x3d95defc	0.073179215
24	0x3d1f1922	0.038842328
25	0x39fb0cc1	0.00047883953
26	0x3d4a0aa1	0.049326543
27	0x3cd75283	0.026284462
28	0x3d0f4efe	0.034987442
29	0xbc9039e6	-0.017605733
30	0x3c96eb42	0.018422727
31	0x3d548d5e	0.05189263
32	0x3cf53d6c	0.029936515
33	0x3d954be1	0.072898634
34	0x3daeb56a	0.08530696
35	0x3d9d5f4c	0.07684192
36	0x3d2d8cce	0.04237061
37	0xba832d0a	-0.001000793
38	0x3d6d3050	0.057907403
39	0x3db6c4c2	0.08924247
40	0x3d818d97	0.06325834
41	0x3d253893	0.040337157
42	0x3d4ee4db	0.050511222
43	0xbb1e72f9	-0.0024177416
44	0x3bd2cfe6	0.006433475
45	0x3d08030e	0.03320604
46	0x3d8b53f5	0.06803123
47	0x3d9ffdb4	0.07812062
48	0x3d69fb20	0.057124257
49	0x3c89594d	0.016766215
50	0x3d4e2f12	0.05033786
51	0x3d1b600d	0.037933398
52	0x3db8ba45	0.09019903
53	0x3bd654e0	0.0065408796
54	0x3ce6282b	0.028095325
55	0x3d4e640f	0.050388392
56	0x3cef1f18	0.029189631
57	0x3d704671	0.05866093
58	0x3d8d79ab	0.06907972
59	0x3c3ff747	0.01171667
60	0x3d083699	0.033255193
61	0x3b6b68c0	0.003592059
62	0x3d401908	0.04689887
63	0x3d88c600	0.066783905
64	0x3d493faf	0.049133
65	0x3b99a8cb	0.004689311
66	0x3c337590	0.010953322
67	0x3d1a66fd	0.037695874
68	0x3cf04268	0.02932854
69	0x3d509362	0.050921805
70	0x3d296126	0.041352414
71	0x3d207d3a	0.039181925
72	0x3d969c42	0.073540226
73	0x3d829352	0.06375755
74	0xbc75a4f8	-0.014992945
75	0x3d638250	0.055544198
76	0x3d68573e	0.056723826
77	0x3be00563	0.0068365796
78	0x3ce785f6	0.02826212
79	0x3d053656	0.032522522
80	0x3d85fffd	0.065429665
81	0xb934cf3a	-0.00017243336
82	0xbce61cd2	-0.028089914
83	0x3c93f17b	0.018059483
84	0xbc905476	-0.0176184
85	0x3c26bce7	0.010176874
86	0x3d6ba5b3	0.05753107
87	0x3bd5fe12	0.0065305317
88	0x3bfa3b28	0.0076364465
89	0x3ce7514c	0.028237008
90	0x3d47a4ed	0.04874127
91	0x3a74765e	0.00093254994
92	0x3b0f0e57	0.0021828616
93	0x3b46b6cc	0.0030321358
94	0x3c98e0d2	0.01866189
95	0x3cf93a34	0.030423261
96	0x3c9a2030	0.018814176
97	0x3bc2efb9	0.0059489873
98	0x3cf11273	0.029427743
99	0x3d545603	0.05183984
100	0x3d41d45d	0.047321666
101	0x3d07e59f	0.033177968
102	0x3d3bcce6	0.045849703
103	0xbc5ab3d8	-0.013348542
104	0x3ca3094c	0.019901894
105	0x3db15955	0.08659617
106	0x3d97ac7a	0.07405944
107	0xbc91d5c3	-0.017802125
108	0x3d5738a4	0.05254425
109	0xbae8b2d9	-0.0017753496
110	0x3cd63656	0.026148956
111	0xbcd43ff5	-0.025909403
112	0x3d0bccf6	0.034131013
113	0x3d2878b9	0.041130755
114	0x3d882c23	0.066490434
115	0x3c697b4b	0.014250587
116	0x3d78bd01	0.060727123
117	0x3d19b139	0.03752253
118	0x3da4ef61	0.080534704
119	0x3d3be89f	0.04587614
120	0x3d334da1	0.043775205
121	0xbd13e389	-0.036105666
122	0x3bd4c606	0.006493333
123	0x3d5dd7b9	0.054160807
124	0x3c0ddb17	0.008658192
125	0x3da6800b	0.08129891
126	0xbc4217ac	-0.011846464
127	0x3d0113af	0.031512912

action_model._discrete_distribution.branches.0.weight f4 [9, 128]
0	0xbbbdfe31	-0.0057981242
1	0xbd447ee9	-0.047972593
2	0xbd4f8439	-0.050663207
3	0xbcbf4d11	-0.023352178
4	0xbce6d703	-0.028178697
5	0xbd2e3e8e	-0.042540126
6	0xbd3c3e35	-0.045957763
7	0x3cb4406a	0.022003371
8	0xbd109a85	-0.03530361
9	0xbb5c3397	-0.0033600086
10	0x3bf3560b	0.0074260286
11	0xbc0526ef	-0.008126958
12	0xbd386984	-0.045022503
13	0x3c7ca918	0.0154211745
14	0xbb66c595	-0.0035212983
15	0xbbda235e	-0.006657048
16	0xbcadb800	-0.021205902
17	0x3d25cb52	0.040477104
18	0xbd168608	-0.036748916
19	0xbd86e6a3	-0.06586959
20	0xbd4847b6	-0.048896514
21	0xbd12dfb5	-0.035857875
22	0x3d1d1e8e	0.038359217
23	0xbd51cc13	-0.05122001
24	0xbd436844	-0.047706857
25	0xbca5aa9f	-0.02022296
26	0xbd0dfb06	-0.034663223
27	0xbd200b74	-0.039073423
28	0xbd139e0d	-0.0360394
29	0xbd142fd5	-0.03617843
30	0xbd61866d	-0.05505984
31	0xbd51e955	-0.051247913
32	0xbd069a45	-0.032861967
33	0xbcd9fa14	-0.026608504
34	0xbd6f2a98	-0.05839023
35	0xbc02100e	-0.007938398
36	0xbcaab99c	-0.020840459
37	0xbcf23b11	-0.02956918
38	0xbd16a5e7	-0.03677931
39	0xbc81515b	-0.015785864
40	0xbcde4c89	-0.027136104
41	0xbcfd3da4	-0.030913182
42	0xb8c4bb57	-9.380903e-05
43	0xba01803a	-0.0004940067
44	0x3cbeb32d	0.023278797
45	0xbcfe600c	-0.031051658
46	0xbc8d4cd8	-0.017248556
47	0xbba71cb5	-0.0050998577
48	0xbd5621a5	-0.05227818
49	0xbcc46eb8	-0.023978576
50	0xbd503ef1	-0.050841276
51	0x3b01ef67	0.0019826533
52	0xbd210caf	-0.039318737
53	0xbd6f46a2	-0.05841697
54	0xbd57d636	-0.05269452
55	0xbd1061ab	-0.035249393
56	0xbbed1e4b	-0.007236277
57	0xbd42205a	-0.047394134
58	0xbcf370e4	-0.029716916
59	0xbcfec674	-0.03110049
60	0xbcdc9017	-0.026924176
61	0x3cf855ed	0.03031441
62	0xbbbaeffa	-0.005704877
63	0xbd305382	-0.04304839
64	0xbcebd47e	-0.028787848
65	0xbd32cc68	-0.04365197
66	0xbd403a01	-0.046930317
67	0xbc96206f	-0.018326012
68	0xbd3f1bb0	-0.046657264
69	0xbc1562d3	-0.0091178
70	0xbccc82b9	-0.024964677
71	0xbc51eada	-0.012812341
72	0xbc3cf8bf	-0.011533915
73	0xbcd27b1c	-0.025693469
74	0xbd02df8f	-0.031951483
75	0xbc922321	-0.017839016
76	0xbc26f806	-0.010190969
77	0xbd0182c9	-0.031618867
78	0xbd386fe1	-0.04502857
79	0xbc75b449	-0.014996597
80	0xbd015c0e	-0.03158193
81	0xbc9c9ee9	-0.019118743
82	0x3d161894	0.036644533
83	0xbcf3bacd	-0.02975216
84	0xbc8314fc	-0.016001217
85	0x3cd7314b	0.026268622
86	0xbd334f51	-0.043776814
87	0x3b61b35a	0.0034439177
88	0xbd177f54	-0.036986664
89	0x3c5f5610	0.013631359
90	0xbd5c9e43	-0.053861868
91	0xbcf26618	-0.029589698
92	0x3c99b59d	0.018763358
93	0x3d3660ec	0.044526026
94	0xbccd2f67	-0.025047017
95	0xbd1c3271	-0.038134042
96	0xbc5c4e62	-0.013446422
97	0xbc886926	-0.016651701
98	0xbcbc5f99	-0.022994803
99	0xbd2db9ad	-0.042413402
100	0xbce1858c	-0.0275295
101	0xbd0cb6d4	-0.034354046
102	0xbcbf64d8	-0.023363516
103	0xbc5a521d	-0.013325241
104	0xbd29e530	-0.041478336
105	0xbcac8205	-0.021058092
106	0xbd00a76e	-0.031409673
107	0x3d092039	0.033477996
108	0xbbd4cc80	-0.006494105
109	0xba78d5c7	-0.00094923045
110	0xbd04743a	-0.032337405
111	0x3d35f1fd	0.04442023
112	0xbca81f58	-0.020522758
113	0xbd12278e	-0.035682254
114	0xbcebbead	-0.028777445
115	0x3ce22235	0.027604202
116	0x3c61a2bf	0.013771712
117	0xbd377804	-0.04479219
118	0xbd246a41	-0.040140394
119	0x3bf6fc3f	0.0075373943
120	0xbd4db95a	-0.050225593
121	0x3d3988f7	0.045296635
122	0xbd45a2a2	-0.0482508
123	0xbd6b3ba5	-0.05742993
124	0xbd0bdea8	-0.03414789
125	0xbd1a553b	-0.03767894
126	0xbd1f76bd	-0.038931597
127	0xbce842ca	-0.02835216
128	0x3d1ade62	0.037809737
129	0x3d701945	0.05861785
130	0x3d232538	0.039830416
131	0xbd748630	-0.059698284
132	0x3d12fe21	0.035886887
133	0xbd345e3e	-0.04403519
134	0x3c58cc91	0.013232366
135	0xbca48b16	-0.020085853
136	0xbd208ce4	-0.039196864
137	0x3d3c19c2	0.045923002
138	0x3caf7d21	0.02142197
139	0xbd0f687d	-0.035011757
140	0xbd31780f	-0.043327387
141	0x3cca5dc5	0.024702916
142	0xbd20fcc3	-0.039303552
143	0xbcb63b4a	-0.022245068
144	0xbd4b3640	-0.049612284
145	0x3bf2ff96	0.007415722
146	0xbcb9bb41	-0.022672297
147	0xbbc9c2e2	-0.006157265
148	0xbd607476	-0.054798566
149	0x3d39d216	0.04536637
150	0x3d2d1daf	0.042264637
151	0xbd4e8072	-0.050415464
152	0xbdb380b3	-0.08764782
153	0x3d390950	0.045174897
154	0xbd69cc5a	-0.05707965
155	0x3d15343b	0.036426764
156	0x3c98cfe8	0.018653825
157	0xbca53f11	-0.020171674
158	0xbc7d4e10	-0.015460506
159	0xbc895d33	-0.016768074
160	0x3c9fb395	0.019494811
161	0xbdd59552	-0.10428871
162	0xbdce4a96	-0.1007282
163	0x3d421423	0.047382485
164	0x3c2adb06	0.010428196
165	0x3cfb0026	0.03063972
166	0xbdcc0393	-0.09961619
167	0xbc61335d	-0.013745156
168	0x3babf1b2	0.005247318
169	0x3c6aa682	0.014321925
170	0x3db60673	0.08887949
171	0x3d12e0b6	0.035858832
172	0x3c95c182	0.018280748
173	0xbc7080bc	-0.01467913
174	0x3cd5ad47	0.026083602
175	0xbdc3437d	-0.09534357
176	0xbc7b8ead	-0.015353841
177	0xbdf8c860	-0.121475935
178	0x3d4cdc5c	0.05001484
179	0x3d82dc4e	0.06389676
180	0xbd49493d	-0.04914211
181	0xbbab8798	-0.00523467
182	0xbd6dbe4f	-0.05804282
183	0x3cb8157c	0.022471182
184	0xbb3c1917	-0.0028701478
185	0x3cdcc9ea	0.026951749
186	0x3c2ad5c0	0.0104269385
187	0x3dabfb02	0.08397485
188	0xbc577466	-0.01315031
189	0x3d4e963a	0.050436236
190	0x3c2e3460	0.010632604
191	0xbd70437e	-0.058658116
192	0x3cc74569	0.02432509
193	0xbc0d06b4	-0.008607555
194	0xbb874d43	-0.0041290834
195	0xbca69bb5	-0.020337919
196	0x3c480dee	0.012210352
197	0x3d8f5836	0.06999247
198	0xbd3d901c	-0.04628001
199	0xba12f08b	-0.00056053017
200	0x3d773829	0.060356293
201	0xbdc16f83	-0.09445097
202	0x3d532c6c	0.051556036
203	0x3d3ba47d	0.045811165
204	0xbc0524ba	-0.008126432
205	0x3db0656d	0.086130954
206	0xbce7529b	-0.028237632
207	0xbdc0005e	-0.0937507
208	0xbca71b92	-0.020398889
209	0xbc29fbaa	-0.010374943
210	0x3ca214fa	0.019785393
211	0xbda5d174	-0.08096591
212	0x3da387a7	0.07984858
213	0x3c774070	0.015091047
214	0xbbbb075f	-0.005707666
215	0x3db87654	0.09006944
216	0x3d90ce02	0.07070543
217	0x3db0aa64	0.086262494
218	0xbd79031a	-0.060793974
219	0x3ce72887	0.028217567
220	0xbd1b77cb	-0.03795604
221	0xbc681ed8	-0.01416751
222	0x3d2cf1db	0.04222284
223	0xbd851b08	-0.064992964
224	0x3d064356	0.03277906
225	0x3d912e71	0.07088936
226	0x3d19c419	0.03754053
227	0xbdad9ecd	-0.084775545
228	0xbd35705e	-0.044296615
229	0xbddf7337	-0.10910647
230	0x3d2091c5	0.039201517
231	0xbc576eb7	-0.013148955
232	0xbca62100	-0.020279408
233	0xbdded760	-0.10880923
234	0xbc86e22b	-0.016465267
235	0x3cfacedb	0.030616214
236	0xbd899746	-0.06718306
237	0x3d898a3f	0.067158215
238	0xbcb1f142	-0.021721486
239	0x3ccc1aa8	0.024915054
240	0xbdb6cda9	-0.08925945
241	0x3d813822	0.063095346
242	0xbc321861	-0.01087007
243	0x3d8c06ba	0.068372205
244	0xbd0c0efa	-0.03419397
245	0x3d58979d	0.052878965
246	0x3c4323f0	0.011910424
247	0x3c43ad53	0.011943179
248	0xbd294a1c	-0.04133044
249	0x3b5cccc6	0.003369139
250	0x3d709692	0.058737345
251	0xbd3ed1a7	-0.04658666
252	0x3d9161cb	0.07098731
253	0xbb59ae8e	-0.0033215615
254	0x3ceab7e7	0.028652145
255	0x3d9f7d3f	0.07787561

action_model._discrete_distribution.branches.0.bias f4 [9]
0	0xbd14ad44	-0.03629805
1	0xbc932233	-0.017960643
2	0x3d1db847	0.03850582
3	0xbbf20d78	-0.0073868595
4	0x3c9b7a7b	0.018979302
5	0x3b1bcd73	0.002377358
6	0x3caac755	0.020847002
7	0xbc399515	-0.011327048
8	0xbc894a11	-0.01675895
